Basic clothing classification/model.tflite (tflite, 408552 bytes, 4 tensors)

dense_5/bias f4 [10]
000000 c6 ad 3c bc 6a 69 b3 be df 0f 03 3e 47 ff 9f 3e
       -0.01151604 -0.35041362 0.12799023 0.3124945
000010 a9 51 c3 be 66 fc de 3d 7e ac 54 3e 12 8c 79 3e
       -0.3814824 0.10887985 0.20768926 0.24369839
000020 86 66 25 be 97 78 03 bf
       -0.16152391 -0.5135588

dense_4/bias f4 [128]
000000 dd 4f 10 3e 60 f3 7c 3e 3b 6b 9e be b2 78 f9 be
       0.14092965 0.24702215 -0.30941185 -0.48724896
000010 04 5f 22 3f 89 42 64 bd ab 15 5e 3e cb 34 f2 3e
       0.6342623 -0.055727515 0.21687953 0.47305903
000020 a2 fd 8d 3d 2f 62 b6 3e 30 89 85 3b e6 14 74 3e
       0.06933142 0.35621783 0.004075192 0.23836097
000030 7c d5 6d bc 2c 93 2b 3e 7c bf b9 be 9c 67 50 be
       -0.014516231 0.1675536 -0.36278903 -0.20352024
000040 d8 b7 82 3d 62 0b 64 bc a6 3f 80 bc 72 2b 3d 3f
       0.06382722 -0.0139187295 -0.01565535 0.7389442
000050 9f 34 40 3e dd 90 21 3f 10 4e 99 3d 82 28 ba be
       0.18770073 0.6311167 0.07485592 -0.3635903
000060 19 29 8c 3e 0c f8 b7 3e d3 27 02 3f 04 e7 ae bd
       0.27375105 0.35931432 0.50842017 -0.085401565
000070 0d 46 fe 3e 1b 3b 92 3e 7e 37 93 3e cc 30 28 3e
       0.4966282 0.2856072 0.28753275 0.16424865
000080 90 82 7f 3f 23 66 de 3d bf 44 50 bd 47 a2 ac 3e
       0.998086 0.10859325 -0.05084681 0.33717558
000090 18 2b 14 3e 1f 2d 22 bd 59 c5 6f be f4 ba 2e 3d
       0.14469564 -0.039593812 -0.23415126 0.04265876
0000a0 b9 c5 c6 3e b6 33 5e 3d c1 77 6d bd d3 5e 97 3d
       0.38822725 0.054248534 -0.057975534 0.07391133
0000b0 5c 0c df bc fb c2 06 3e 4f cd c5 3e bc fc 11 3f
       -0.027227573 0.13160317 0.386332 0.5702627
0000c0 b4 74 82 3b c8 b9 ee 3e 4f 5e 84 3e 0a a7 1c 3f
       0.0039811973 0.46626115 0.25853202 0.6119238
0000d0 a2 5f f1 bd b6 e8 99 3e 9f b2 36 3e c8 9c b6 3e
       -0.11785819 0.30060357 0.17841576 0.3566649
0000e0 6c 5e e2 3e 52 44 b1 3c c8 7e 97 3e 56 aa 5f be
       0.44212663 0.021639023 0.29588914 -0.21842322
0000f0 dc fc 13 3f 0c 2d e4 bd 00 2d 84 bc a3 3b 62 3f
       0.5780771 -0.111414045 -0.016134739 0.8837225
000100 e4 28 81 be 9a 51 a1 3e 8d 59 94 3d 37 71 a7 be
       -0.2522651 0.3150757 0.07243643 -0.32703564
000110 76 f0 76 bd 9f 11 4c be 29 e3 bc 3e 0f 7c f9 bc
       -0.060287915 -0.19928597 0.3689206 -0.030454664
000120 a7 1b 83 3e bd c2 9d bc 9e c0 0f 3f 17 b9 ad bd
       0.25607035 -0.019257898 0.56153286 -0.08482569
000130 45 97 9a bc ff 0c ab 3e 7d 9f 0d 3f d6 6a 6b 3e
       -0.018870959 0.33408353 0.55321485 0.22989973
000140 5b 10 d9 3d e5 f0 6b bc ed c5 45 be fa 60 39 3f
       0.10598823 -0.014400695 -0.19313784 0.724136
000150 0e 1a 25 3f 41 9d f7 bb 3f cf 44 3f d3 0c 09 3d
       0.6449288 -0.007556588 0.7687873 0.033459496
000160 be 62 f7 bc 82 e5 59 3e 88 07 2b 3f af d2 0e 3f
       -0.030198451 0.21278957 0.66808367 0.5579023
000170 8e 04 f8 bd 72 6b 80 ba f4 3a f6 3d 80 a6 87 3e
       -0.12110244 -0.0009797646 0.12022963 0.26494217
000180 d1 36 96 3e 42 84 39 3f fc cb 3c 3e f1 87 cd 3d
       0.29338697 0.72467434 0.18437189 0.100356944
000190 9e 51 a5 be 1f 62 59 3e 5a 9c cd bc 55 22 23 bd
       -0.3228883 0.21228836 -0.025098968 -0.039827663
0001a0 ae 77 a1 3e fa 90 9b 3c ec dc c0 3d a6 a9 79 bc
       0.3153662 0.018990029 0.094171375 -0.015238201
0001b0 2f 7e 97 bc 69 83 ab 3e 54 c6 a9 bd 0d ce 90 3e
       -0.018492786 0.33498695 -0.08289781 0.28282204
0001c0 34 44 bc 3e a0 2b 3b 3e b7 f0 86 bc f9 37 1a 3f
       0.36770785 0.1827836 -0.016472204 0.6024166
0001d0 c4 5f 05 3f 1e e2 d4 3e 04 fb 53 be 80 8e aa 3e
       0.5209925 0.41578764 -0.20701224 0.33311844
0001e0 d5 d3 a8 be e0 bd 33 3f cd fb 9e 3e fe 9b 85 3e
       -0.32974115 0.702116 0.31051484 0.26095575
0001f0 1a 1d b5 3e b7 73 3c bc b0 b6 7e 3e 00 a6 77 be
       0.35373765 -0.011502198 0.24874377 -0.24184418

std.constant1 f4 [128, 784]
000000 01 a0 22 3e ee 2d 6e 3e 96 5c 94 3e 49 ed 3e 3d
       0.15881349 0.23259708 0.28976887 0.04661301
000010 c4 42 ab 3e 42 0a 1c bd db 91 1b be 09 b6 bb be
       0.33449376 -0.03809572 -0.15192358 -0.3666232
000020 4c 2d a4 be 00 89 5a be 4d 20 7b be bb 53 88 3d
       -0.3206581 -0.21341324 -0.2452404 0.06656595
000030 84 29 8d 3c a6 bf 01 3a ab a9 5e be 58 26 98 bc
       0.01723171 0.00049495173 -0.2174441 -0.018572971
000040 60 91 d8 3d 82 09 c6 3c 9e e2 84 bc d6 15 4b be
       0.10574603 0.024174456 -0.01622134 -0.19832548
000050 9c 61 45 be 99 1e a6 be 9b ae c6 be 0a fd 91 3d
       -0.19275516 -0.3244522 -0.38805088 0.071283415
000060 fc 87 37 3e b2 f7 1f 3c 46 67 72 bc de 93 1d 3e
       0.17922968 0.009763645 -0.01479513 0.15388438
000070 8d d8 de 3e 64 15 dc 3e 42 30 78 3e 49 e9 4f 3e
       0.4352459 0.4298507 0.24237159 0.20303835
000080 63 f5 77 3d 03 30 14 be 2e c0 f9 be 9a 17 16 bf
       0.060536753 -0.1447144 -0.48779434 -0.58629763
000090 70 2b 20 be 1f 71 a1 3e e2 e1 a8 3e 92 08 67 3e
       -0.1564157 0.31531617 0.32984835 0.22561863
0000a0 3e e0 89 3c 8a 32 5d 3b 7f 93 3c 3e b2 3a 64 3d
       0.01683056 0.0033752047 0.1841564 0.05572004
0000b0 23 55 61 3d 9d 72 77 3e 21 be a2 3e 70 90 2c bc
       0.055012833 0.24164815 0.31785682 -0.010532483
0000c0 7e 37 a6 be 1b 00 a1 be 32 56 1f bf 7e c1 a9 be
       -0.32464212 -0.31445393 -0.622409 -0.33155435
0000d0 60 3d b7 bd 88 59 ed 3d 46 cd d3 3c 3b 55 ae 3d
       -0.08947253 0.11589342 0.025854718 0.0851235
0000e0 19 88 07 3e 77 ff 7f 3e 89 59 72 3e e6 b2 4a 3e
       0.13235511 0.24999796 0.23666967 0.19794807
0000f0 aa ce 5a bd 5d 32 07 bf 41 50 4c bf f6 52 1b bf
       -0.053419746 -0.52811223 -0.7980996 -0.60673463
000100 34 ef 91 bd 01 61 b9 3d d4 8b 82 bd e3 e2 32 bd
       -0.071257025 0.09051705 -0.06374326 -0.043673407
000110 fd c8 a4 bd da 97 33 3e a7 79 ba 3e 23 f7 59 3e
       -0.08046148 0.17538396 0.36420938 0.21285681
000120 fe 0b 00 3e d8 a6 10 3e c6 e4 f9 3d 7a fe 3a bd
       0.12504575 0.14126146 0.12201838 -0.045652844
000130 1e ce a6 be 51 99 ad be 8e cb e1 be 07 e0 89 be
       -0.3257913 -0.33906034 -0.44100612 -0.26928732
000140 c1 4d b1 3c 2c 51 81 3e b9 e9 4b 3e 97 58 93 3d
       0.021643521 0.25257242 0.19913377 0.071946315
000150 ac 14 86 3e 8f 9c 4d 3e 05 c0 0a 3e 06 b2 29 bc
       0.26187646 0.20079254 0.13549812 -0.0103573855
000160 8f bd 57 be 78 d0 fb be ba 71 17 bf ee 9f 8a be
       -0.21068405 -0.49182487 -0.5915791 -0.27075142
000170 c6 86 bd bd e3 8b b2 bd 50 b4 66 bd 07 7b ad 3c
       -0.092542216 -0.087180875 -0.056324303 0.021176828
000180 1f 74 19 3c 7d 14 65 3e d5 b4 6f 3e 24 8c 73 3e
       0.009366064 0.22371097 0.23408826 0.23783928
000190 bc f9 7d 3e 46 0b b2 3d ae 8b 70 3d 52 cc 80 bc
       0.24802297 0.086935565 0.05872696 -0.015722428
0001a0 b6 56 74 bc 52 cf 4f be f8 90 85 be a2 d7 0d be
       -0.014913252 -0.2029393 -0.26087165 -0.13851789
0001b0 c0 3f ad 3c c9 f7 5b 3e 20 f4 a5 3d 78 a9 4c 3e
       0.021148562 0.21481241 0.08103204 0.19986522
0001c0 c6 3f dc 3d 35 95 ee 3d 56 3d da 3c 04 78 1c be
       0.10754351 0.11649553 0.026640575 -0.15280157
0001d0 79 0f 0b be fc 2d 82 be 58 0f 8c be 1f a0 63 be
       -0.13580121 -0.25425708 -0.27355456 -0.2222905
0001e0 ac b3 0b be e4 c8 50 be e2 f8 40 3d b8 75 20 3e
       -0.13642758 -0.20389134 0.047112353 0.15669906
0001f0 7d 18 1e 3e a8 c8 81 3e 95 93 2c 3e e1 83 85 3e
       0.15439029 0.253484 0.16853173 0.26077178
000200 00 b2 92 3e 71 a2 0b 3e 4a 8e 4e bd 24 22 91 bd
       0.28651428 0.13636185 -0.050428666 -0.0708659
000210 7a 7d 23 be 8e 99 1e be 2e 74 8f be d2 8d 9a be
       -0.15965834 -0.15488264 -0.28018326 -0.30186325
000220 c3 fd 3e bd b5 7a 1c 3e af 37 b9 3d 03 a9 0c 3e
       -0.046628725 0.15281184 0.09043824 0.13736348
000230 20 26 90 3d 25 f9 cb bd 83 4c 5c be 91 f9 8f be
       0.07038522 -0.0995963 -0.21513562 -0.28120092
000240 87 73 d9 bd 32 dc 3f be 28 da 8b be 57 0a 1d be
       -0.10617738 -0.18736342 -0.27314878 -0.15335976
000250 db ee 4c be 05 15 c1 bc dd 32 9a 3d 28 cf 3b 3e
       -0.20012991 -0.023569593 0.07529233 0.18340743
000260 5f e8 0e 3c 0b 33 89 3e 1e 96 8e 3e 69 97 5a 3e
       0.008722394 0.26796755 0.27848905 0.21346821
000270 a6 23 41 3e 4b 3d 1d 3e e8 a9 a7 3d b0 43 b6 bd
       0.18861255 0.15355413 0.08186704 -0.08899629
000280 cd d8 bd bd 12 ea f3 bd 5d 5f 7b 3c 41 84 7f be
       -0.09269867 -0.1190988 0.015342561 -0.24952795
000290 6a 0c 5a be 19 87 2d 3d 16 fd 51 bd cc 4a a0 bd
       -0.21293798 0.042365167 -0.051266752 -0.07826766
0002a0 03 ef 8f bd 75 bd f8 bd e5 dc bb bd bd 33 96 be
       -0.0702801 -0.12145511 -0.09172992 -0.29336348
0002b0 36 48 41 be 1c 8e 66 bd 6d 05 5e bd 43 cd 5d bc
       -0.18875203 -0.05628787 -0.054204393 -0.013537708
0002c0 d7 96 a3 bd 31 e2 e9 bb 26 ea cb 3d d0 89 3e 3d
       -0.07987755 -0.00713756 0.0995677 0.046518147
0002d0 8e ba c2 3d c9 6e 0b bd 48 88 98 3c 2e 2e 8a bc
       0.09508239 -0.0340412 0.018619671 -0.016867723
0002e0 5c fe 2d 3e 31 b4 99 3d 30 84 54 3d a4 4f b2 3c
       0.16991562 0.07505072 0.051883876 0.021766491
0002f0 c4 8d 34 bc f9 46 52 3d 1d f8 b3 3a e7 5a d4 bd
       -0.011020128 0.051337216 0.001373056 -0.10368901
000300 68 12 d2 bd 60 64 e1 3d 51 b7 85 3c b2 69 79 3d
       -0.10257417 0.11005473 0.016322764 0.060891815
000310 22 fa d2 3d 68 70 28 bd ce 3d 41 be 64 1d 40 be
       0.10301615 -0.041122824 -0.18871233 -0.18761212
000320 f6 eb 1f bc 3a b2 27 3b d9 71 ef 3c 99 0e 33 be
       -0.009760847 0.002558841 0.029229091 -0.17486037
000330 09 d8 93 bd 59 cf 99 bd 3c 1d a1 bc 5a 83 2e 3e
       -0.0721894 -0.075102516 -0.01966726 0.17042294
000340 51 ac 64 3e 4e 4d 29 3d 9f ed 34 3d d4 45 41 3d
       0.22331358 0.04133349 0.044171926 0.047185734
000350 3a 3a 83 3e 54 2e 8e 3d 47 3c 25 3b 37 c5 b6 bc
       0.2563036 0.0694243 0.002521293 -0.022310836
000360 ab e7 9c 3d ff aa 29 3e 51 51 a4 3d ce 76 10 be
       0.07661375 0.16569136 0.080233224 -0.1410782
000370 83 b8 0b 3d e2 a9 01 3e 60 a4 d5 3c 06 3d 93 3d
       0.03411151 0.12662461 0.026079357 0.07189374
000380 c8 61 72 bd 03 09 45 be a1 5d 0e be 89 d9 a3 be
       -0.059175283 -0.19241719 -0.13902904 -0.32001904
000390 74 50 51 3d 5b f6 aa 3d 02 f3 52 bc 67 6f 35 be
       0.051102117 0.0834777 -0.01287532 -0.17718278
0003a0 66 c3 8c be 04 25 05 be 21 00 11 be e5 a7 ac 3c
       -0.27492827 -0.13002402 -0.14160205 0.021076152
0003b0 1f 6f 18 bd d0 65 4f bd 00 b0 d7 3d 9c 11 10 3e
       -0.03721535 -0.050634205 0.10531616 0.14069217
0003c0 83 45 bf 3c e5 a3 4d be 78 02 8d bd d1 91 40 3c
       0.023348575 -0.20082052 -0.068852365 0.011753515
0003d0 1c 8d a8 bd 60 07 d0 3d 01 ce d4 3d 8f a7 f8 3d
       -0.082300395 0.10157657 0.103908546 0.12141334
0003e0 7c 2a bc 3d c8 64 f3 b8 2b 02 95 bd 91 a0 e8 3b
       0.09187791 -0.00011605915 -0.07275804 0.007099219
0003f0 95 d3 93 be 0e 07 50 be 9b a9 a2 be cb 4a 91 be
       -0.28872362 -0.20315191 -0.31770024 -0.28377375

std.constant2 f4 [10, 128]
000000 30 bd 09 bb 50 e7 a7 bd ec 13 7d bc 85 6d 7c bd
       -0.0021017306 -0.08198416 -0.015446644 -0.061627883
000010 92 bc 88 bd 8f a5 25 3d e7 f7 5a 3d f5 1d 26 3e
       -0.06676592 0.040441092 0.053459074 0.16222365
000020 45 ad 77 be 61 b4 bc bd 28 dd a1 3d 69 ea 95 bd
       -0.24187191 -0.09214092 0.0790351 -0.07320101
000030 0b ff d6 3d b9 e4 a7 3d 5d 7d 8b 3d 9a d8 04 bf
       0.10497864 0.08197922 0.068110205 -0.5189301
000040 5f ad 4e 3d cb 5c 14 be ca dd 67 bd ca 8d d5 be
       0.05045831 -0.14488523 -0.056608 -0.4170974
000050 67 7b 69 3e a7 49 67 3e 9b 56 ff bd 3f 86 d7 be
       0.2280098 0.2258669 -0.124676906 -0.4209461
000060 3b 0a e0 3d 32 a4 d1 be ec fd 45 3e d4 5a 6b bd
       0.10939451 -0.40945584 0.19335145 -0.057459667
000070 9c 99 8f be db da c9 3c f9 5d 9b 3d 0c e3 25 3c
       -0.28046882 0.024640491 0.07586283 0.010124933
000080 14 f9 9b be 79 94 55 be 45 02 69 be b5 e9 b2 3d
       -0.3046347 -0.20857419 -0.22754772 0.08735982
000090 fc 57 ff be f4 0b 14 3c 2e 38 d4 3c f1 74 46 bd
       -0.49871814 0.009036053 0.025905695 -0.048451368
0000a0 2a 2d 84 3e f2 fc 8d 3d f3 66 9a be cb 81 23 be
       0.25815707 0.06933011 -0.3015667 -0.15967481
0000b0 80 2c e7 3d 2a 02 02 3e 65 cb 82 3e 06 e7 d7 3d
       0.112877846 0.12696138 0.25545803 0.10542111
0000c0 c6 dc 48 be 23 4b b4 be c0 f4 dc 3d 82 60 2d 3e
       -0.19615468 -0.35213575 0.1078887 0.16931346
0000d0 b5 bb 4b be b3 6f 67 bf 53 66 6a be 6d 1c cb 3d
       -0.19895823 -0.90404814 -0.22890596 0.09917531
0000e0 af 44 70 3d 27 8a 95 be e6 eb b0 bd ce 6c f2 3d
       0.05865925 -0.29206964 -0.08638744 0.11837159
0000f0 a7 67 b8 bd a3 d5 fd 3d 1f f9 f8 3c 06 f0 b1 bf
       -0.09004145 0.123942636 0.030392228 -1.3901374
000100 b2 75 db bd 71 a6 ee be 5c 9e 96 be b2 fd 19 3e
       -0.10715808 -0.4661136 -0.29417694 0.15038183
000110 ad f9 3a 3e b8 51 c9 3d e0 9a 8a 3e 62 a8 f0 3d
       0.18259306 0.0983004 0.27071285 0.117508665
000120 25 eb 7b 3d 65 e7 8f bd a3 66 3e 3e 68 52 87 3c
       0.06150355 -0.07026557 0.1859384 0.016518787
000130 11 a9 84 3b ee 1d 3a be d2 90 1b be 87 39 fe be
       0.0040484746 -0.1817548 -0.15191963 -0.49653265
000140 58 51 01 be 3c a8 41 3e e7 28 fc 3c a0 e3 e1 3e
       -0.12628686 0.18911833 0.030781223 0.44118977
000150 eb 88 60 bc ae 66 dc 3d f0 8d f6 bd eb 84 09 3d
       -0.013704519 0.10761772 -0.12038791 0.033574026
000160 69 9b 33 be e5 06 81 be e9 21 8e 3d 5c 36 96 bd
       -0.17539753 -0.25200573 0.069400616 -0.07334587
000170 bc e7 3f be d3 6b 7c bd 07 7f 34 be f1 50 be be
       -0.18740743 -0.061626267 -0.17626582 -0.37171128
000180 46 72 16 3e ee 86 79 3d a0 9d 03 3e 83 c8 1f 3e
       0.1469203 0.060919695 0.12853098 0.15603833
000190 3a 91 db bd d6 1d 27 be 93 0c c1 bc 95 1a 0e be
       -0.10721059 -0.16319975 -0.023565566 -0.13877328
0001a0 31 60 e2 be 88 5a b3 3d 47 5e 76 bc c9 58 24 be
       -0.44214013 0.08757502 -0.015037126 -0.16049494
0001b0 ed 24 72 3d a7 52 f0 bd 24 ac 9a be 0f bf 7a 3c
       0.059117246 -0.11734515 -0.30209458 0.015304341
0001c0 cd 50 6b be 1b 36 f0 3d 4c d3 0a 3e a1 2d e0 3d
       -0.22980042 0.1172907 0.13557166 0.10946203
0001d0 c4 df c5 bd 5a ec cc be 3c fb 10 3e 32 25 ed 3c
       -0.096618205 -0.40024072 0.14158338 0.0289484
0001e0 96 4a 2a 3d 79 59 3c be b4 81 c7 3c 52 2d b2 3e
       0.041575037 -0.18393506 0.02435384 0.34800202
0001f0 dc 9f 47 be b1 71 78 3d 6e 44 ed be bf 8b 40 3e
       -0.19494575 0.0606553 -0.4634127 0.18803309
000200 64 03 c0 bd 4a 02 e1 bc 24 10 84 3e 77 53 b4 bd
       -0.09375647 -0.027466912 0.25793564 -0.08804982
000210 78 1e f0 be 4b 1b 9e 3d 4e 59 5e bf d5 c5 1c bf
       -0.46898246 0.077200495 -0.8685502 -0.6123937
000220 82 86 40 be ac 6f d7 bd 3d 77 5b be cf 2c 1e 3e
       -0.1880131 -0.105193466 -0.21432205 0.1544678
000230 df 1d ae 3b 85 18 7f 3d a8 81 40 3e eb 1b 2c bf
       0.0053136195 0.062279243 0.1879946 -0.672301
000240 e5 3e 17 be d5 73 82 3d c1 b9 01 3e 97 67 a5 be
       -0.14770086 0.063697495 0.12668516 -0.32305595
000250 b9 f3 c9 be b7 df 97 be 0a 05 b6 be 95 8d c3 be
       -0.39443758 -0.29662868 -0.3555072 -0.38193956
000260 31 98 a8 be 84 62 35 be ae 1e 0a bf a7 f3 b7 3e
       -0.32928613 -0.17713362 -0.53953063 0.3592808
000270 c0 27 50 be 90 85 a3 be 55 ee e8 3d d8 bc 0a bf
       -0.20327663 -0.31937838 0.11373583 -0.541944
000280 dd 23 35 bf c8 52 05 3e dc b1 86 be 97 b2 01 bf
       -0.7075785 0.1301986 -0.2630757 -0.5066313
000290 d2 5b ec be 4d b2 c9 3d f7 ef 05 3e 39 fd 25 3c
       -0.46163803 0.09848461 0.1307982 0.010131174
0002a0 b5 d5 d5 3d 6f 60 73 bd d8 2f 10 3f 14 0e 20 be
       0.10441152 -0.059418138 0.56323004 -0.1563037
0002b0 c9 81 95 3d 11 9a 1e bd 3e 2c 95 3e d2 38 1e bd
       0.07300145 -0.038721148 0.29135317 -0.038628407
0002c0 cd 42 25 be de b1 7e bf 13 54 eb be 99 25 8e be
       -0.16138764 -0.99490154 -0.4596258 -0.2776306
0002d0 82 a5 38 3f 08 00 65 bf 44 ed e6 bd 99 8b ac be
       0.72127545 -0.8945317 -0.112757236 -0.33700255
0002e0 a5 a6 b2 be 24 30 3a 3f 5d ec 8b bd fa 92 c9 3e
       -0.34892765 0.72729707 -0.06832192 0.39369947
0002f0 8e 42 c4 be 14 2d d5 be a1 65 65 3d ca 4c c0 be
       -0.38332027 -0.41635954 0.056005124 -0.37558585
000300 be 79 db 3e 28 c2 94 bd 65 a2 c5 be bc 1e 91 3e
       0.4286632 -0.07263595 -0.3860046 0.2834376
000310 43 dd da 3d 5a 29 96 3e a9 a4 8d be 03 36 d4 bc
       0.106867336 0.29328424 -0.27664688 -0.025904661
000320 12 fa 5e 3e 2f ca 40 be b9 2e 20 bf ea 6f de be
       0.21775082 -0.18827127 -0.62571293 -0.4344476
000330 fb e1 00 bd d3 00 a5 be a7 9e aa bd c0 52 fc be
       -0.03146551 -0.3222719 -0.08331042 -0.49281883
000340 17 f4 88 3e ec b7 c1 bc 16 89 48 be 87 b4 e5 be
       0.26748726 -0.023647271 -0.19583544 -0.44864294
000350 5c ee 17 bf 97 53 cf bc 0f 8d ea be 1f 10 2f 3c
       -0.5934808 -0.025308413 -0.45810744 0.010684996
000360 2c 80 f9 bc c1 41 42 3f a1 52 b6 be 15 67 c0 be
       -0.030456625 0.7588158 -0.35609916 -0.37578645
000370 9e 35 b1 3e 44 99 2b be ee 3e f8 bd 93 90 ea bd
       0.3461122 -0.16757685 -0.12121378 -0.114533566
000380 a8 29 37 be f8 4a 09 be 31 b2 22 be 61 ee 13 bc
       -0.17886984 -0.13407505 -0.15888287 -0.009029002
000390 d8 4e ee 3d 68 80 25 bf 9f 3e 1b be 48 3c 2f 3e
       0.11636132 -0.6464906 -0.15160607 0.17112839
0003a0 33 09 9b 3e 69 fa e1 be db c1 32 3d 4e c4 19 be
       0.30280456 -0.4413636 0.043641906 -0.1501629
0003b0 64 69 02 be 55 0b 96 3e 41 8c 87 3e 42 1f 8c bf
       -0.12735516 0.2930552 0.26474193 -1.0947039
0003c0 f0 d8 54 3e 40 43 2c be ff 6f 59 be 19 af 3b be
       0.2078588 -0.16822529 -0.2123413 -0.18328513
0003d0 c8 12 a8 3e d2 2b 4d 3d 27 f9 8d be 8c 1e 55 3e
       0.3282683 0.05009062 -0.2772915 0.20812434
0003e0 35 50 01 bf 17 d6 35 be c2 bd da 3e ab a7 c2 3e
       -0.5051301 -0.1775745 0.427229 0.38018546
0003f0 b4 a6 e0 3d 3d a2 10 be 83 1e 38 be 83 2f 29 be
       0.10969296 -0.14124389 -0.1798039 -0.1652203
