Basic clothing classification/model_size_optimized.tflite (tflite, 103856 bytes, 4 tensors)

dense_5/bias f4 [10]
0	0xbc3cadc6	-0.01151604
1	0xbeb3696a	-0.35041362
2	0x3e030fdf	0.12799023
3	0x3e9fff47	0.3124945
4	0xbec351a9	-0.3814824
5	0x3ddefc66	0.10887985
6	0x3e54ac7e	0.20768926
7	0x3e798c12	0.24369839
8	0xbe256686	-0.16152391
9	0xbf037897	-0.5135588

dense_4/bias f4 [128]
0	0x3e104fdd	0.14092965
1	0x3e7cf360	0.24702215
2	0xbe9e6b3b	-0.30941185
3	0xbef978b2	-0.48724896
4	0x3f225f04	0.6342623
5	0xbd644289	-0.055727515
6	0x3e5e15ab	0.21687953
7	0x3ef234cb	0.47305903
8	0x3d8dfda2	0.06933142
9	0x3eb6622f	0.35621783
10	0x3b858930	0.004075192
11	0x3e7414e6	0.23836097
12	0xbc6dd57c	-0.014516231
13	0x3e2b932c	0.1675536
14	0xbeb9bf7c	-0.36278903
15	0xbe50679c	-0.20352024
16	0x3d82b7d8	0.06382722
17	0xbc640b62	-0.0139187295
18	0xbc803fa6	-0.01565535
19	0x3f3d2b72	0.7389442
20	0x3e40349f	0.18770073
21	0x3f2190dd	0.6311167
22	0x3d994e10	0.07485592
23	0xbeba2882	-0.3635903
24	0x3e8c2919	0.27375105
25	0x3eb7f80c	0.35931432
26	0x3f0227d3	0.50842017
27	0xbdaee704	-0.085401565
28	0x3efe460d	0.4966282
29	0x3e923b1b	0.2856072
30	0x3e93377e	0.28753275
31	0x3e2830cc	0.16424865
32	0x3f7f8290	0.998086
33	0x3dde6623	0.10859325
34	0xbd5044bf	-0.05084681
35	0x3eaca247	0.33717558
36	0x3e142b18	0.14469564
37	0xbd222d1f	-0.039593812
38	0xbe6fc559	-0.23415126
39	0x3d2ebaf4	0.04265876
40	0x3ec6c5b9	0.38822725
41	0x3d5e33b6	0.054248534
42	0xbd6d77c1	-0.057975534
43	0x3d975ed3	0.07391133
44	0xbcdf0c5c	-0.027227573
45	0x3e06c2fb	0.13160317
46	0x3ec5cd4f	0.386332
47	0x3f11fcbc	0.5702627
48	0x3b8274b4	0.0039811973
49	0x3eeeb9c8	0.46626115
50	0x3e845e4f	0.25853202
51	0x3f1ca70a	0.6119238
52	0xbdf15fa2	-0.11785819
53	0x3e99e8b6	0.30060357
54	0x3e36b29f	0.17841576
55	0x3eb69cc8	0.3566649
56	0x3ee25e6c	0.44212663
57	0x3cb14452	0.021639023
58	0x3e977ec8	0.29588914
59	0xbe5faa56	-0.21842322
60	0x3f13fcdc	0.5780771
61	0xbde42d0c	-0.111414045
62	0xbc842d00	-0.016134739
63	0x3f623ba3	0.8837225
64	0xbe8128e4	-0.2522651
65	0x3ea1519a	0.3150757
66	0x3d94598d	0.07243643
67	0xbea77137	-0.32703564
68	0xbd76f076	-0.060287915
69	0xbe4c119f	-0.19928597
70	0x3ebce329	0.3689206
71	0xbcf97c0f	-0.030454664
72	0x3e831ba7	0.25607035
73	0xbc9dc2bd	-0.019257898
74	0x3f0fc09e	0.56153286
75	0xbdadb917	-0.08482569
76	0xbc9a9745	-0.018870959
77	0x3eab0cff	0.33408353
78	0x3f0d9f7d	0.55321485
79	0x3e6b6ad6	0.22989973
80	0x3dd9105b	0.10598823
81	0xbc6bf0e5	-0.014400695
82	0xbe45c5ed	-0.19313784
83	0x3f3960fa	0.724136
84	0x3f251a0e	0.6449288
85	0xbbf79d41	-0.007556588
86	0x3f44cf3f	0.7687873
87	0x3d090cd3	0.033459496
88	0xbcf762be	-0.030198451
89	0x3e59e582	0.21278957
90	0x3f2b0788	0.66808367
91	0x3f0ed2af	0.5579023
92	0xbdf8048e	-0.12110244
93	0xba806b72	-0.0009797646
94	0x3df63af4	0.12022963
95	0x3e87a680	0.26494217
96	0x3e9636d1	0.29338697
97	0x3f398442	0.72467434
98	0x3e3ccbfc	0.18437189
99	0x3dcd87f1	0.100356944
100	0xbea5519e	-0.3228883
101	0x3e59621f	0.21228836
102	0xbccd9c5a	-0.025098968
103	0xbd232255	-0.039827663
104	0x3ea177ae	0.3153662
105	0x3c9b90fa	0.018990029
106	0x3dc0dcec	0.094171375
107	0xbc79a9a6	-0.015238201
108	0xbc977e2f	-0.018492786
109	0x3eab8369	0.33498695
110	0xbda9c654	-0.08289781
111	0x3e90ce0d	0.28282204
112	0x3ebc4434	0.36770785
113	0x3e3b2ba0	0.1827836
114	0xbc86f0b7	-0.016472204
115	0x3f1a37f9	0.6024166
116	0x3f055fc4	0.5209925
117	0x3ed4e21e	0.41578764
118	0xbe53fb04	-0.20701224
119	0x3eaa8e80	0.33311844
120	0xbea8d3d5	-0.32974115
121	0x3f33bde0	0.702116
122	0x3e9efbcd	0.31051484
123	0x3e859bfe	0.26095575
124	0x3eb51d1a	0.35373765
125	0xbc3c73b7	-0.011502198
126	0x3e7eb6b0	0.24874377
127	0xbe77a600	-0.24184418

std.constant1 i1 [128, 784] scale=0.01102077 zero_point=0
0	0x0e	0.15429078
1	0x15	0.23143618
2	0x1a	0.28654003
3	0x04	0.04408308
4	0x1e	0.33062312
5	0xfd	-0.03306231
6	0xf2	-0.15429078
7	0xdf	-0.36368543
8	0xe3	-0.31960234
9	0xed	-0.20939463
10	0xea	-0.24245694
11	0x06	0.06612462
12	0x02	0.02204154
13	0x00	0.0
14	0xec	-0.22041541
15	0xfe	-0.02204154
16	0x0a	0.11020771
17	0x02	0.02204154
18	0xff	-0.01102077
19	0xee	-0.19837387
20	0xef	-0.18735309
21	0xe3	-0.31960234
22	0xdd	-0.38572696
23	0x06	0.06612462
24	0x10	0.17633232
25	0x01	0.01102077
26	0xff	-0.01102077
27	0x0e	0.15429078
28	0x27	0.42981005
29	0x27	0.42981005
30	0x16	0.24245694
31	0x12	0.19837387
32	0x05	0.055103853
33	0xf3	-0.14327002
34	0xd4	-0.4849139
35	0xcb	-0.58410084
36	0xf2	-0.15429078
37	0x1d	0.31960234
38	0x1e	0.33062312
39	0x14	0.22041541
40	0x02	0.02204154
41	0x00	0.0
42	0x11	0.18735309
43	0x05	0.055103853
44	0x05	0.055103853
45	0x16	0.24245694
46	0x1d	0.31960234
47	0xff	-0.01102077
48	0xe3	-0.31960234
49	0xe3	-0.31960234
50	0xc8	-0.6171631
51	0xe2	-0.33062312
52	0xf8	-0.08816616
53	0x0b	0.12122847
54	0x02	0.02204154
55	0x08	0.08816616
56	0x0c	0.13224924
57	0x17	0.25347772
58	0x15	0.23143618
59	0x12	0.19837387
60	0xfb	-0.055103853
61	0xd0	-0.52899694
62	0xb8	-0.7934955
63	0xc9	-0.60614234
64	0xfa	-0.06612462
65	0x08	0.08816616
66	0xfa	-0.06612462
67	0xfc	-0.04408308
68	0xf9	-0.07714539
69	0x10	0.17633232
70	0x21	0.36368543
71	0x13	0.20939463
72	0x0b	0.12122847
73	0x0d	0.14327002
74	0x0b	0.12122847
75	0xfc	-0.04408308
76	0xe2	-0.33062312
77	0xe1	-0.34164387
78	0xd8	-0.44083083
79	0xe8	-0.26449847
80	0x02	0.02204154
81	0x17	0.25347772
82	0x12	0.19837387
83	0x07	0.07714539
84	0x18	0.26449847
85	0x12	0.19837387
86	0x0c	0.13224924
87	0xff	-0.01102077
88	0xed	-0.20939463
89	0xd3	-0.49593467
90	0xca	-0.5951216
91	0xe7	-0.27551925
92	0xf8	-0.08816616
93	0xf8	-0.08816616
94	0xfb	-0.055103853
95	0x02	0.02204154
96	0x01	0.01102077
97	0x14	0.22041541
98	0x15	0.23143618
99	0x16	0.24245694
100	0x17	0.25347772
101	0x08	0.08816616
102	0x05	0.055103853
103	0xff	-0.01102077
104	0xff	-0.01102077
105	0xee	-0.19837387
106	0xe8	-0.26449847
107	0xf3	-0.14327002
108	0x02	0.02204154
109	0x13	0.20939463
110	0x07	0.07714539
111	0x12	0.19837387
112	0x0a	0.11020771
113	0x0b	0.12122847
114	0x02	0.02204154
115	0xf2	-0.15429078
116	0xf4	-0.13224924
117	0xe9	-0.25347772
118	0xe7	-0.27551925
119	0xec	-0.22041541
120	0xf4	-0.13224924
121	0xed	-0.20939463
122	0x04	0.04408308
123	0x0e	0.15429078
124	0x0e	0.15429078
125	0x17	0.25347772
126	0x0f	0.16531156
127	0x18	0.26449847
128	0x1a	0.28654003
129	0x0c	0.13224924
130	0xfb	-0.055103853
131	0xfa	-0.06612462
132	0xf2	-0.15429078
133	0xf2	-0.15429078
134	0xe7	-0.27551925
135	0xe5	-0.2975608
136	0xfc	-0.04408308
137	0x0e	0.15429078
138	0x08	0.08816616
139	0x0c	0.13224924
140	0x06	0.06612462
141	0xf7	-0.099186935
142	0xec	-0.22041541
143	0xe6	-0.28654003
144	0xf6	-0.11020771
145	0xef	-0.18735309
146	0xe7	-0.27551925
147	0xf2	-0.15429078
148	0xee	-0.19837387
149	0xfe	-0.02204154
150	0x07	0.07714539
151	0x11	0.18735309
152	0x01	0.01102077
153	0x18	0.26449847
154	0x19	0.27551925
155	0x13	0.20939463
156	0x11	0.18735309
157	0x0e	0.15429078
158	0x07	0.07714539
159	0xf8	-0.08816616
160	0xf8	-0.08816616
161	0xf5	-0.12122847
162	0x01	0.01102077
163	0xe9	-0.25347772
164	0xed	-0.20939463
165	0x04	0.04408308
166	0xfb	-0.055103853
167	0xf9	-0.07714539
168	0xfa	-0.06612462
169	0xf5	-0.12122847
170	0xf8	-0.08816616
171	0xe5	-0.2975608
172	0xef	-0.18735309
173	0xfb	-0.055103853
174	0xfb	-0.055103853
175	0xff	-0.01102077
176	0xf9	-0.07714539
177	0xff	-0.01102077
178	0x09	0.099186935
179	0x04	0.04408308
180	0x09	0.099186935
181	0xfd	-0.03306231
182	0x02	0.02204154
183	0xfe	-0.02204154
184	0x0f	0.16531156
185	0x07	0.07714539
186	0x05	0.055103853
187	0x02	0.02204154
188	0xff	-0.01102077
189	0x05	0.055103853
190	0x00	0.0
191	0xf7	-0.099186935
192	0xf7	-0.099186935
193	0x0a	0.11020771
194	0x01	0.01102077
195	0x06	0.06612462
196	0x09	0.099186935
197	0xfc	-0.04408308
198	0xef	-0.18735309
199	0xef	-0.18735309
200	0xff	-0.01102077
201	0x00	0.0
202	0x03	0.03306231
203	0xf0	-0.17633232
204	0xf9	-0.07714539
205	0xf9	-0.07714539
206	0xfe	-0.02204154
207	0x0f	0.16531156
208	0x14	0.22041541
209	0x04	0.04408308
210	0x04	0.04408308
211	0x04	0.04408308
212	0x17	0.25347772
213	0x06	0.06612462
214	0x00	0.0
215	0xfe	-0.02204154
216	0x07	0.07714539
217	0x0f	0.16531156
218	0x07	0.07714539
219	0xf3	-0.14327002
220	0x03	0.03306231
221	0x0b	0.12122847
222	0x02	0.02204154
223	0x07	0.07714539
224	0xfb	-0.055103853
225	0xef	-0.18735309
226	0xf3	-0.14327002
227	0xe3	-0.31960234
228	0x05	0.055103853
229	0x08	0.08816616
230	0xff	-0.01102077
231	0xf0	-0.17633232
232	0xe7	-0.27551925
233	0xf4	-0.13224924
234	0xf3	-0.14327002
235	0x02	0.02204154
236	0xfd	-0.03306231
237	0xfb	-0.055103853
238	0x0a	0.11020771
239	0x0d	0.14327002
240	0x02	0.02204154
241	0xee	-0.19837387
242	0xfa	-0.06612462
243	0x01	0.01102077
244	0xf9	-0.07714539
245	0x09	0.099186935
246	0x09	0.099186935
247	0x0b	0.12122847
248	0x08	0.08816616
249	0x00	0.0
250	0xf9	-0.07714539
251	0x01	0.01102077
252	0xe6	-0.28654003
253	0xee	-0.19837387
254	0xe3	-0.31960234
255	0xe6	-0.28654003

std.constant2 i1 [10, 128] scale=0.024683299 zero_point=0
0	0x00	0.0
1	0xfd	-0.0740499
2	0xff	-0.024683299
3	0xfe	-0.049366597
4	0xfd	-0.0740499
5	0x02	0.049366597
6	0x02	0.049366597
7	0x07	0.17278309
8	0xf6	-0.24683298
9	0xfc	-0.098733194
10	0x03	0.0740499
11	0xfd	-0.0740499
12	0x04	0.098733194
13	0x03	0.0740499
14	0x03	0.0740499
15	0xeb	-0.5183493
16	0x02	0.049366597
17	0xfa	-0.1480998
18	0xfe	-0.049366597
19	0xef	-0.41961607
20	0x09	0.22214969
21	0x09	0.22214969
22	0xfb	-0.12341649
23	0xef	-0.41961607
24	0x04	0.098733194
25	0xef	-0.41961607
26	0x08	0.19746639
27	0xfe	-0.049366597
28	0xf5	-0.2715163
29	0x01	0.024683299
30	0x03	0.0740499
31	0x00	0.0
32	0xf4	-0.2961996
33	0xf8	-0.19746639
34	0xf7	-0.22214969
35	0x04	0.098733194
36	0xec	-0.49366596
37	0x00	0.0
38	0x01	0.024683299
39	0xfe	-0.049366597
40	0x0a	0.24683298
41	0x03	0.0740499
42	0xf4	-0.2961996
43	0xfa	-0.1480998
44	0x05	0.12341649
45	0x05	0.12341649
46	0x0a	0.24683298
47	0x04	0.098733194
48	0xf8	-0.19746639
49	0xf2	-0.34556618
50	0x04	0.098733194
51	0x07	0.17278309
52	0xf8	-0.19746639
53	0xdb	-0.91328204
54	0xf7	-0.22214969
55	0x04	0.098733194
56	0x02	0.049366597
57	0xf4	-0.2961996
58	0xfd	-0.0740499
59	0x05	0.12341649
60	0xfc	-0.098733194
61	0x05	0.12341649
62	0x01	0.024683299
63	0xc8	-1.3822647
64	0xfc	-0.098733194
65	0xed	-0.46898267
66	0xf4	-0.2961996
67	0x06	0.1480998
68	0x07	0.17278309
69	0x04	0.098733194
70	0x0b	0.2715163
71	0x05	0.12341649
72	0x02	0.049366597
73	0xfd	-0.0740499
74	0x08	0.19746639
75	0x01	0.024683299
76	0x00	0.0
77	0xf9	-0.17278309
78	0xfa	-0.1480998
79	0xec	-0.49366596
80	0xfb	-0.12341649
81	0x08	0.19746639
82	0x01	0.024683299
83	0x12	0.44429937
84	0xff	-0.024683299
85	0x04	0.098733194
86	0xfb	-0.12341649
87	0x01	0.024683299
88	0xf9	-0.17278309
89	0xf6	-0.24683298
90	0x03	0.0740499
91	0xfd	-0.0740499
92	0xf8	-0.19746639
93	0xfe	-0.049366597
94	0xf9	-0.17278309
95	0xf1	-0.37024948
96	0x06	0.1480998
97	0x02	0.049366597
98	0x05	0.12341649
99	0x06	0.1480998
100	0xfc	-0.098733194
101	0xf9	-0.17278309
102	0xff	-0.024683299
103	0xfa	-0.1480998
104	0xee	-0.44429937
105	0x04	0.098733194
106	0xff	-0.024683299
107	0xf9	-0.17278309
108	0x02	0.049366597
109	0xfb	-0.12341649
110	0xf4	-0.2961996
111	0x01	0.024683299
112	0xf7	-0.22214969
113	0x05	0.12341649
114	0x05	0.12341649
115	0x04	0.098733194
116	0xfc	-0.098733194
117	0xf0	-0.39493278
118	0x06	0.1480998
119	0x01	0.024683299
120	0x02	0.049366597
121	0xf9	-0.17278309
122	0x01	0.024683299
123	0x0e	0.34556618
124	0xf8	-0.19746639
125	0x02	0.049366597
126	0xed	-0.46898267
127	0x08	0.19746639
128	0xfc	-0.098733194
129	0xff	-0.024683299
130	0x0a	0.24683298
131	0xfc	-0.098733194
132	0xed	-0.46898267
133	0x03	0.0740499
134	0xdd	-0.86391544
135	0xe7	-0.6170825
136	0xf8	-0.19746639
137	0xfc	-0.098733194
138	0xf7	-0.22214969
139	0x06	0.1480998
140	0x00	0.0
141	0x03	0.0740499
142	0x08	0.19746639
143	0xe5	-0.66644907
144	0xfa	-0.1480998
145	0x03	0.0740499
146	0x05	0.12341649
147	0xf3	-0.3208829
148	0xf0	-0.39493278
149	0xf4	-0.2961996
150	0xf2	-0.34556618
151	0xf1	-0.37024948
152	0xf3	-0.3208829
153	0xf9	-0.17278309
154	0xea	-0.5430326
155	0x0f	0.37024948
156	0xf8	-0.19746639
157	0xf3	-0.3208829
158	0x05	0.12341649
159	0xea	-0.5430326
160	0xe3	-0.71581566
161	0x05	0.12341649
162	0xf5	-0.2715163
163	0xeb	-0.5183493
164	0xed	-0.46898267
165	0x04	0.098733194
166	0x05	0.12341649
167	0x00	0.0
168	0x04	0.098733194
169	0xfe	-0.049366597
170	0x17	0.5677159
171	0xfa	-0.1480998
172	0x03	0.0740499
173	0xfe	-0.049366597
174	0x0c	0.2961996
175	0xfe	-0.049366597
176	0xf9	-0.17278309
177	0xd8	-0.9873319
178	0xed	-0.46898267
179	0xf5	-0.2715163
180	0x1d	0.71581566
181	0xdc	-0.88859874
182	0xfb	-0.12341649
183	0xf2	-0.34556618
184	0xf2	-0.34556618
185	0x1d	0.71581566
186	0xfd	-0.0740499
187	0x10	0.39493278
188	0xf0	-0.39493278
189	0xef	-0.41961607
190	0x02	0.049366597
191	0xf1	-0.37024948
192	0x11	0.41961607
193	0xfd	-0.0740499
194	0xf0	-0.39493278
195	0x0b	0.2715163
196	0x04	0.098733194
197	0x0c	0.2961996
198	0xf5	-0.2715163
199	0xff	-0.024683299
200	0x09	0.22214969
201	0xf8	-0.19746639
202	0xe7	-0.6170825
203	0xee	-0.44429937
204	0xff	-0.024683299
205	0xf3	-0.3208829
206	0xfd	-0.0740499
207	0xec	-0.49366596
208	0x0b	0.2715163
209	0xff	-0.024683299
210	0xf8	-0.19746639
211	0xee	-0.44429937
212	0xe8	-0.5923992
213	0xff	-0.024683299
214	0xed	-0.46898267
215	0x00	0.0
216	0xff	-0.024683299
217	0x1f	0.76518226
218	0xf2	-0.34556618
219	0xf1	-0.37024948
220	0x0e	0.34556618
221	0xf9	-0.17278309
222	0xfb	-0.12341649
223	0xfb	-0.12341649
224	0xf9	-0.17278309
225	0xfb	-0.12341649
226	0xfa	-0.1480998
227	0x00	0.0
228	0x05	0.12341649
229	0xe6	-0.6417658
230	0xfa	-0.1480998
231	0x07	0.17278309
232	0x0c	0.2961996
233	0xee	-0.44429937
234	0x02	0.049366597
235	0xfa	-0.1480998
236	0xfb	-0.12341649
237	0x0c	0.2961996
238	0x0b	0.2715163
239	0xd4	-1.0860652
240	0x08	0.19746639
241	0xf9	-0.17278309
242	0xf7	-0.22214969
243	0xf9	-0.17278309
244	0x0d	0.3208829
245	0x02	0.049366597
246	0xf5	-0.2715163
247	0x08	0.19746639
248	0xec	-0.49366596
249	0xf9	-0.17278309
250	0x11	0.41961607
251	0x0f	0.37024948
252	0x04	0.098733194
253	0xfa	-0.1480998
254	0xf9	-0.17278309
255	0xf9	-0.17278309
