Basic clothing classification/model.tflite (tflite, 408560 bytes, 4 tensors)

dense_21/bias f4 [10]
000000 36 06 02 3d 6c ef 12 bf e7 02 4f 3e f8 99 94 3e
       0.031744204 -0.5739658 0.20215951 0.2902372
000010 37 86 f7 be 87 c6 f8 bd 95 32 83 3e 0e d2 81 3e
       -0.48344585 -0.12147241 0.2562453 0.25355572
000020 df 2d 7c bd c4 0a e8 be
       -0.061567184 -0.45320714

dense_20/bias f4 [128]
000000 27 06 f4 3e 0e 21 09 3e e9 20 4c 3f 6f af 40 3e
       0.47660944 0.13391516 0.79737717 0.18816923
000010 52 80 ba 3d cd 01 3b 3f 90 ee 54 3f 06 bc 62 3f
       0.091065064 0.7304962 0.8317652 0.8856815
000020 3d 12 36 3f ec 08 12 3f ee c6 bf 3e 9d bd 77 be
       0.7112158 0.57044864 0.3745646 -0.24193425
000030 0e 54 0a 3f 80 f0 fa bc 5d aa 61 3f b9 a5 dc bd
       0.5403451 -0.030632257 0.8815058 -0.107737966
000040 fa b2 e2 3e 45 1c 46 3f a5 c9 fd 3e ab 91 28 3f
       0.44277173 0.77386886 0.49567905 0.6584727
000050 79 98 75 3f 11 bd ab 3c 9b 09 aa 3e 7e 16 20 3f
       0.9593578 0.020964177 0.33210453 0.6253432
000060 1d 69 03 3f 3d 94 f4 bd 74 15 f1 bd 34 f2 55 3f
       0.51332265 -0.11942337 -0.1177167 0.835727
000070 aa 79 60 3e 8d db c0 3e d5 0d c7 3c 08 0b fd 3e
       0.21921411 0.37667504 0.024298588 0.4942248
000080 8b 8b ae 3e 10 ec 78 3f e1 0b bc 3f a8 b0 8e 3e
       0.34090838 0.972352 1.4691125 0.27869153
000090 24 2d be 3c 4e 2d 32 3c 75 51 d2 be d0 f5 68 bc
       0.023214884 0.010875059 -0.41077772 -0.0142187625
0000a0 59 85 2a 3d 64 8e 8d 3d 31 b4 3e 3f a5 01 80 3e
       0.041631076 0.069119245 0.744937 0.25001255
0000b0 2c 84 ca 3e 9e 62 2a 3f 81 8c 7a 3a c0 80 0b bd
       0.39553964 0.6655673 0.000955768 -0.034058332
0000c0 73 bf 0e 3e a4 92 22 3f 89 a1 04 bc 6b 6f 0b 3e
       0.1394022 0.63505006 -0.008095154 0.13616721
0000d0 67 ca 35 3e 60 e0 d7 3e ae 72 83 bd bf da 43 3f
       0.17752992 0.42163372 -0.06418358 0.76505655
0000e0 07 0f b8 bd a4 ea 19 3f 8b ae 70 bc 63 01 41 bf
       -0.08987241 0.6012366 -0.014690052 -0.7539274
0000f0 95 78 b4 3d c3 41 30 bc 3f 3b d4 3c af ab 8c 3f
       0.08812062 -0.010757866 0.025907157 1.0989894
000100 a0 06 22 3f 38 b3 74 bc 52 71 06 3f 99 11 15 be
       0.6329136 -0.014935307 0.52516663 -0.14557494
000110 e8 49 15 3e e0 9b 21 3d fe 57 b3 3d 3f 88 22 3f
       0.14578974 0.039455295 0.087570176 0.63489145
000120 0c c8 13 3f fc 94 7b 3f 13 8a 14 3f b7 8a c4 bc
       0.5772712 0.9827421 0.58023185 -0.023991926
000130 41 be cc bc 48 40 43 3f 91 33 1f bf 8e 17 6d 3f
       -0.024993064 0.7626996 -0.6218806 0.92614067
000140 a0 5c 17 be 3e db 0d be 4b a5 76 bf 44 f2 7f 3d
       -0.14781427 -0.13853166 -0.9634597 0.062486902
000150 be 1d 5c 3e 88 90 e0 be 43 ff 97 bc 90 e6 09 bf
       0.2149572 -0.4386027 -0.018554335 -0.53867435
000160 ce 4e 2f 3f 23 1d ad 3e 30 37 0e bd d5 f8 9e 3e
       0.6847962 0.33811292 -0.0347206 0.3104922
000170 4a 2a d6 3e ff 26 19 3f 29 f5 4b 3e a4 13 1a 3e
       0.4182914 0.5982513 0.1991774 0.15046555
000180 7c 2f 2f 3e 91 ad 6d 3f d8 1a fa 3e cc 6f 43 bc
       0.17107958 0.92842966 0.48848605 -0.01192851
000190 c7 f3 7e 3f b2 f6 a5 3e 26 7e ac 3e 8b ce 4c be
       0.99590725 0.32414776 0.33689994 -0.20000665
0001a0 31 97 8d 3f b0 96 8e 3f 4a 51 c1 3e a8 78 0e 3f
       1.1061765 1.1139736 0.3775733 0.55652857
0001b0 44 36 28 3e 9c aa 9e 3e 7a f6 ef 3e c7 40 ac 3e
       0.1642695 0.3098954 0.46867734 0.3364317
0001c0 cd 3a d3 be 13 6c ab 3e a0 14 b7 3c cc ca 86 bd
       -0.412558 0.33480892 0.022348702 -0.06581649
0001d0 3b 40 d5 be b1 5a 52 3e 17 e9 eb bc cc 02 f2 3e
       -0.41650566 0.20542409 -0.02879767 0.4726776
0001e0 66 60 b6 be 41 bd 6c 3e 78 74 8d 3f 77 bf d9 3e
       -0.3562042 0.2311907 1.1051168 0.4252889
0001f0 06 8e 4e bc c6 80 94 3e 3a 58 ae bc 90 dd 20 bc
       -0.012607103 0.29004496 -0.021282304 -0.00981845

std.constant1 f4 [128, 784]
000000 1a 94 12 be 30 f6 a9 be 3f 83 90 be 83 a3 3f bf
       -0.14314309 -0.3319564 -0.28225133 -0.74858874
000010 f5 b0 56 bd ab 3b c7 3c c8 20 33 be 6b c5 1a bf
       -0.052414853 0.024320444 -0.17492974 -0.60457486
000020 a9 41 64 be 76 62 24 bf 4c 75 b5 bf 22 0c 17 bf
       -0.22290672 -0.6421274 -1.4176421 -0.5900289
000030 0f ef d5 3d fd 65 a8 3e 35 10 04 be 6b 4a a5 3e
       0.104459874 0.3289031 -0.12896807 0.3228334
000040 fe c9 c2 be fd bf 27 bf dd ab e5 be 33 00 84 be
       -0.38044733 -0.65527326 -0.44857684 -0.25781402
000050 fe 34 da bf 21 25 98 bd d6 0d bd 3e cf 38 a1 bd
       -1.7047422 -0.07428957 0.36924618 -0.078721635
000060 b0 1b c2 bd 66 24 89 be 34 d2 c7 3d 12 6a a4 be
       -0.09477937 -0.26785582 0.0975689 -0.32112175
000070 9b b0 11 3f 8a 3f 0b be 95 ce 46 be 8f b2 57 bf
       0.56910104 -0.13598457 -0.19414742 -0.84256834
000080 da a5 0f bd 96 eb 71 3e 86 08 2f 3f 1c 12 80 be
       -0.035070278 0.23625025 0.6837238 -0.25013816
000090 24 56 cc be 6b 42 a3 be 0a 8c 79 bd 27 47 e4 3e
       -0.3990947 -0.3188661 -0.060924567 0.44585535
0000a0 cb f9 70 3d 2e 40 07 3e 0f c5 98 3e bf f7 aa 3e
       0.05883197 0.13208076 0.29837844 0.3339214
0000b0 b6 9b b9 3d 58 9c 81 be 5a 9c 03 bf 0a 8b e6 be
       0.09062903 -0.25314593 -0.5141045 -0.45027953
0000c0 05 a7 b8 be f4 ac 51 bb 71 cb 41 3f 67 2f 8b be
       -0.36064926 -0.0031993957 0.7570105 -0.27184603
0000d0 1f 7c 94 be 3e e9 a6 3e 7e 1d 53 3d 9a 56 c5 bd
       -0.29000947 0.32599825 0.051541798 -0.096356586
0000e0 0f 98 04 3f f9 d8 9b 3e 73 e6 26 be 2f d2 8b bf
       0.51794523 0.30438974 -0.16298847 -1.0923518
0000f0 8c 54 9a be 9c cc f2 3d 96 31 aa be 14 67 19 bd
       -0.3014263 0.118554324 -0.33240956 -0.03745182
000100 a3 ec 33 be b4 ff da 3e d6 ff 3e 3d 8a b1 f8 3d
       -0.17570738 0.4277321 0.046630703 0.12143238
000110 d6 3d 30 bd 14 af 87 3e 98 1c a0 3e 5b 36 76 3c
       -0.04302772 0.26500762 0.31271815 0.015027608
000120 0a 29 57 3c 49 f0 20 3e 9f cb a3 3e 28 b4 31 3e
       0.013132343 0.15716662 0.31991288 0.1735388
000130 06 c8 d4 be 07 56 ad be 44 58 3f 3f 7a 64 89 3d
       -0.41558856 -0.33854696 0.7474406 0.067086175
000140 eb 99 a6 3d 3f 13 8c 3e f6 bc 81 be ad 3d 43 be
       0.08134826 0.27358434 -0.25339478 -0.19066496
000150 cf 0e f4 3e 03 db ae 3e 5d 50 0f bf ac 38 7a bf
       0.47667548 0.34151468 -0.55982 -0.97742724
000160 92 cb 79 3e fe ab ee 3e a0 40 71 bf ab dc 77 be
       0.24394062 0.46615595 -0.94239235 -0.24205272
000170 41 5b fc 3d c6 a5 af 3e 4c 77 b8 bc 28 7e ba 3d
       0.12322093 0.34306163 -0.022517823 0.09106094
000180 e9 d1 38 be b4 62 96 be 2f 45 4e be cd 1c f3 bd
       -0.18048824 -0.2937218 -0.20143579 -0.11870728
000190 62 f9 a8 bd 55 1f 9e 3d 9f 8c 8e 3e 91 24 ff 3e
       -0.08250691 0.0772082 0.2784166 0.49832585
0001a0 e3 d6 ae be c2 60 4b bf a6 88 44 3e 94 b2 07 3f
       -0.3414832 -0.79444516 0.19192752 0.53006864
0001b0 86 39 15 3e 91 3d 56 3e e0 f4 79 3e dc 78 75 3e
       0.14572725 0.20921923 0.24409819 0.23971885
0001c0 85 2a df 3e 27 2b 97 3d fd 57 25 bf 69 60 07 bf
       0.43587127 0.073812775 -0.64587384 -0.52881485
0001d0 9f 71 02 3f c5 5f 62 bd f8 90 51 bf ac cb b9 3e
       0.5095462 -0.055267114 -0.8186183 0.36288202
0001e0 75 52 ba 3e 75 11 58 3e f9 fe 1d 3e 3b eb 94 3c
       0.36391035 0.2110041 0.15429296 0.018178573
0001f0 88 d7 2b be d0 43 32 be ae 37 4e be 38 0b e9 bd
       -0.16781437 -0.17408681 -0.20138428 -0.11379093
000200 aa 55 e9 3d 33 d5 11 3e 06 d1 ef 3d 5c 72 9d 3e
       0.11393292 0.14241485 0.1170979 0.30751312
000210 40 f2 a5 bd 9b 42 ca be 6d a7 f7 3d 44 a9 20 3f
       -0.08102846 -0.3950394 0.12092481 0.6275828
000220 35 a0 72 3e 00 16 b2 be 31 7b 84 3d 49 c7 04 3f
       0.23693927 -0.3478241 0.064688094 0.51866585
000230 b9 cc 8d 3e e2 0e f8 bd ca ef 10 bf 06 5c 2a bd
       0.27695253 -0.12112214 -0.5661589 -0.041591667
000240 83 ae a1 3e f7 0c 16 bf e2 7a 25 bf 08 ce 9c 3e
       0.31578454 -0.5861353 -0.6464063 0.3062594
000250 78 16 c0 3e 3c 21 37 3e 8a 02 89 3e 52 0e 55 3e
       0.37517142 0.17883772 0.2675975 0.20806244
000260 78 ba 06 be 5f ed c1 bd cb e5 84 bd 70 7f ac 3e
       -0.1315707 -0.09469103 -0.06489142 0.33690977
000270 7f 45 9c 3d 8f 50 1b 3d 2e 35 21 3e bd cf 09 3d
       0.07630443 0.037918624 0.15742943 0.03364538
000280 78 44 fc bd 53 9d 27 3e ff a2 19 3d 9e 73 95 bd
       -0.12317747 0.16368608 0.03750896 -0.07297443
000290 ca 6f 2b 3e de e3 91 be 69 0c 06 be d3 2d 09 3f
       0.16741863 -0.2849416 -0.13090672 0.5358555
0002a0 50 10 e5 3d 77 ef 59 be 65 69 0f bf 47 3a 3b 3e
       0.11184752 -0.21282755 -0.56020194 0.1828395
0002b0 fb 8a 83 3e f9 0e fb be 56 9f 68 be 7e 0b 93 bd
       0.2569197 -0.4903486 -0.22717032 -0.07179926
0002c0 c6 ad 39 3e 49 b5 10 3e 7f 2c b7 3d 33 8c 30 be
       0.18132696 0.14131655 0.08944034 -0.17240982
0002d0 7a bd 5c bd c5 c3 8f be df a3 ce bb 29 93 fb bd
       -0.053891636 -0.28079048 -0.006306156 -0.12283928
0002e0 e0 a3 c3 be b9 46 80 bb 08 eb 05 3d 61 07 c1 bd
       -0.38210964 -0.003914681 0.032694846 -0.094252355
0002f0 3c 01 61 be 75 fa 01 3e cb c0 a6 be e3 ea f2 bb
       -0.21973127 0.12693198 -0.32568964 -0.0074132546
000300 64 71 97 3e ee 6c 23 be fe ed 67 be d5 af 35 3e
       0.29578698 -0.15959522 -0.2264938 0.17742856
000310 71 12 7b be 86 be ab be fa 0d d5 be a4 3b aa bc
       -0.24518754 -0.33543795 -0.41612226 -0.020780392
000320 b3 68 38 bf 6d f2 40 bf 29 2d 27 be 76 60 09 bf
       -0.7203476 -0.7536991 -0.16325821 -0.5366281
000330 e8 84 ba 3d 4b 44 49 3b 72 c4 07 3e 47 8a 09 3c
       0.09107381 0.0030710872 0.13258532 0.008394784
000340 81 bf 4b bd 41 9c 85 be 00 d6 9c 3d 8c e5 13 3d
       -0.04974318 -0.26095775 0.07658005 0.036107585
000350 c5 df 89 bd 5a 06 b7 be b0 c2 0a bd bb f5 d4 bd
       -0.06732134 -0.35747033 -0.033877075 -0.10398432
000360 84 ae 74 be 3b a0 04 3d e5 c8 b1 be ab 43 be be
       -0.23894697 0.03237937 -0.34723583 -0.37161002
000370 b0 96 56 3d fa c5 30 be 85 39 77 be 73 78 7e 3d
       0.0523898 -0.17263022 -0.24143036 0.062126588
000380 68 b1 b2 3d 1c 59 95 3e 00 a7 cf bd cc 18 2c bf
       0.08725244 0.29169548 -0.101392746 -0.6722534
000390 49 73 24 bf ba 9a c6 be 00 6d e5 bd 67 22 24 bf
       -0.6423841 -0.38789922 -0.11202431 -0.64114994
0003a0 3c 6d 96 be 46 96 cf 3c 73 34 6d 3e 32 c6 c2 bd
       -0.29380214 0.02534021 0.23164539 -0.09510459
0003b0 67 5d 5c be 99 f4 8d be 74 73 11 3d 54 bf 2e 3e
       -0.21520005 -0.27725676 0.035510495 0.17065173
0003c0 2a 91 3e bc 1f 8b 34 be ff 7b bd bc bd 19 ed be
       -0.0116312895 -0.17631195 -0.023130415 -0.463087
0003d0 cb 58 1e bf 2e 58 b7 bc fd ba 88 be b7 ff 08 bf
       -0.6185424 -0.022380915 -0.2670516 -0.5351519
0003e0 c9 89 bd bb 75 e1 07 3e ae 26 91 3d 10 28 00 3d
       -0.0057842475 0.13269599 0.07087456 0.031288207
0003f0 f2 b1 9b 3e 78 24 be 3e b1 3c 44 3d 45 1a f2 be
       0.304092 0.37137198 0.047909442 -0.47285667

std.constant2 f4 [10, 128]
000000 3f fb 44 bf 19 ae a1 3e 4f 2c c3 be e8 99 5f 3e
       -0.7694587 0.31578138 -0.38119742 0.21836054
000010 2d f7 7a bf e7 a2 9d be 6d 56 77 be e5 48 02 bf
       -0.9803341 -0.30788347 -0.24154063 -0.5089248
000020 31 1d 5c 3e 00 59 30 bf f7 9f 7f 3e b9 fe 27 bf
       0.2149551 -0.68885803 0.24963365 -0.6562305
000030 8a 49 aa 3d 2e 55 10 be e4 05 8d 3e 3b bd 13 3f
       0.08314808 -0.14094993 0.27543557 0.5771062
000040 c2 84 eb be 2e 6d 95 bf 94 f3 78 3d 55 fc 31 3e
       -0.45999724 -1.1673944 0.06077917 0.17381413
000050 18 bb 2a be b1 a5 82 bb 1c 65 37 3f 2b bd 3f 3e
       -0.16672933 -0.003987037 0.71638656 0.18724506
000060 84 50 6b 3e 2c 64 9c 3e 97 bf 65 bf 75 d6 8d bf
       0.22979933 0.30545175 -0.8974547 -1.1081072
000070 c7 8b 28 bd 2b 90 1c be 95 c3 15 3e e0 06 ba 3d
       -0.041148927 -0.1528937 0.1462539 0.090833426
000080 dc 07 1f 3e 0f de 87 bc c2 20 e5 be b8 29 87 bd
       0.15530342 -0.016585378 -0.44751555 -0.06599754
000090 78 16 e1 be ff b3 95 be ab 58 06 bd 1d 7a a9 3d
       -0.43962455 -0.2923889 -0.032799404 0.082752444
0000a0 d4 a6 aa be 1b ee ef be 97 62 af bf 32 cd ee 3d
       -0.33330405 -0.46861348 -1.3701962 0.11660232
0000b0 cf 4b 43 bf 0a 10 97 3e d3 51 ed be 4f be 9f bd
       -0.7628755 0.29504424 -0.4635149 -0.0779997
0000c0 e9 88 60 3e d1 ab 91 3d 3a a5 2e be c5 df ea 3d
       0.21927227 0.071128495 -0.17055216 0.11468462
0000d0 da 8c 1e 3d c2 ef 10 be 20 27 7c be 53 ae 24 be
       0.038708545 -0.1415396 -0.246243 -0.16082124
0000e0 b4 eb 7f bf 66 33 f6 be 4e 40 1c 3d f5 6b f3 bd
       -0.9996903 -0.4808609 0.038147263 -0.118858255
0000f0 fd 80 38 be cf 3a 3e bd 31 79 cb be 39 01 71 3e
       -0.18017955 -0.046442803 -0.397409 0.23535623
000100 b0 1c 50 be 2f c9 0b be 13 dc 24 3e c8 ab 8f 3e
       -0.20323443 -0.13650964 0.16099577 0.28060746
000110 46 d0 11 3e e1 d9 a7 bd 6f 11 c5 be c3 6e 1c be
       0.14239606 -0.08195854 -0.38489863 -0.15276627
000120 74 32 47 3f 83 90 fb 3d 6f e5 36 3e 7a d9 a5 bd
       0.7781136 0.12283423 0.1786096 -0.08098121
000130 f9 a6 be 3c db 1d f0 3e f8 e4 14 bd bb 9a 45 bf
       0.023272978 0.46897778 -0.036351174 -0.77189225
000140 f6 b9 4e 3c 90 25 a6 bc 07 b4 53 3e bc 56 f8 3e
       0.012617579 -0.020281583 0.20674144 0.48503673
000150 48 de 80 bf eb a6 e2 3e 67 c3 4d be 9a c1 29 3e
       -1.0067835 0.44267973 -0.20094071 0.1657776
000160 1f 0c 99 bc 04 b3 a5 be 8f 37 b6 3d ce 29 be bd
       -0.018682538 -0.3236314 0.08897316 -0.09285317
000170 f3 8c a1 3e b1 db 73 bf e1 ee 74 be 48 a9 b3 3d
       0.31552848 -0.952571 -0.2391925 0.08772522
000180 bf ee 8c be 1a e0 b4 be 4e ac f4 3e 88 b0 24 be
       -0.275259 -0.35327226 0.47787708 -0.16082966
000190 f1 e2 01 3f aa d6 5b 3e a6 7c 11 bf c1 3f 8a 3e
       0.5073691 0.21468607 -0.56830823 0.27001765
0001a0 57 00 dd 3d b5 d4 eb 3e fa 01 24 be ac ef a9 bc
       0.107910804 0.4606072 -0.16016379 -0.020744167
0001b0 37 3c 66 bf 23 91 fc be d4 67 23 3e e5 20 27 3f
       -0.8993563 -0.4932948 0.15957576 0.6528457
0001c0 22 6c ef bd 15 ba 34 bf 4d 8e 1e 3e 55 0f 62 3d
       -0.116905466 -0.7059644 0.15483971 0.055190403
0001d0 b7 0f d1 3d b1 04 a0 bd 7c 66 10 bf d0 1e 5d 3d
       0.102080755 -0.07813395 -0.5640638 0.053984463
0001e0 58 39 8c 3e 74 68 2e 3e 0b e9 c6 3e d6 4b 5b bd
       0.273875 0.17032033 0.38849673 -0.05353912
0001f0 2d 58 37 bf aa 0e 89 be e9 47 48 be e5 65 3f 3e
       -0.7161892 -0.26769 -0.19558682 0.18691213
000200 b6 3a 7e bf 70 0c 26 bf 8b 34 5f bf 7f 14 ce bc
       -0.99308336 -0.6486273 -0.8718955 -0.025156258
000210 11 08 49 3f c3 30 b7 3e 8d 2d 35 bf 09 c1 00 3f
       0.78527933 0.3577939 -0.7077263 0.5029455
000220 db 1c 4c 3f 3f 89 2e 3f 78 bc 64 3e 7e db 51 be
       0.7973153 0.6817817 0.2233752 -0.20493886
000230 3e d8 ef 3e 26 80 95 3e 62 d0 a9 bc bc b6 b7 be
       0.46844667 0.29199332 -0.020729247 -0.35881603
000240 60 72 9a be 2a 6c 35 bf 63 2f bc bf 2a 3d cd bf
       -0.30165386 -0.7086817 -1.4701961 -1.6034291
000250 d0 1b 93 bf 64 9c 37 be e7 07 fc be 36 5d 10 bf
       -1.1492863 -0.17930752 -0.4922478 -0.5639223
000260 50 80 19 be 78 01 6c bd f6 12 14 c0 0d 58 21 bf
       -0.14990354 -0.05761859 -2.3136573 -0.6302498
000270 e9 d8 96 be b8 5e 90 bf be 36 97 be 43 29 84 bf
       -0.29462364 -1.1278906 -0.29533952 -1.0325092
000280 45 f4 89 bd a3 a5 7c bd 9a 1f 5a bf 0a 1b 1a bf
       -0.06736044 -0.0616814 -0.8520447 -0.6019751
000290 19 7f 25 3f 68 56 5d 3e 0f 22 87 3e 41 93 4c be
       0.6464706 0.21614993 0.26393172 -0.19978048
0002a0 ef 88 5a 3d b0 36 8e bf 12 16 4e bf 61 c2 28 c0
       0.053353246 -1.1110439 -0.80502427 -2.636864
0002b0 2d 6f 67 bf 37 38 b2 3d 50 8c d2 3e 39 d3 f5 bc
       -0.90404016 0.087021284 0.41122675 -0.030007945
0002c0 ae da c7 bf ba 4d 25 bf a2 7b 53 bc 23 ad 08 3f
       -1.5613611 -0.64571726 -0.012907894 0.53389186
0002d0 a0 5d 10 bf 0a 36 ff 3d 07 9c 91 be 28 41 09 bf
       -0.5639286 0.12461479 -0.28439352 -0.53615046
0002e0 8f 27 01 3e b1 71 20 be 71 f6 bc bd 27 2e 73 3e
       0.12612747 -0.1566837 -0.092266925 0.23748074
0002f0 9f 05 80 3e f2 85 42 3d f6 c6 0a 3f 5f 3d 7c bf
       0.2500429 0.04749102 0.5420984 -0.98531145
000300 87 aa ef be d9 25 4b 3d 69 57 a3 3e 98 61 d9 3d
       -0.4680979 0.04959664 0.31902626 0.10614318
000310 f5 e3 02 3f 7b d2 e2 3d 84 1f da 3c d7 55 95 3e
       0.51129085 0.11075302 0.026626356 0.29167053
000320 0d 15 08 bf 6c 0a 1f 3e 44 c3 a4 bf 7b 53 1e 3d
       -0.5315712 0.1553132 -1.287209 0.038653832
000330 58 d5 46 be 06 e7 d2 be 4b 7b 8c be de 34 13 3e
       -0.19417322 -0.41191882 -0.27437815 0.14375636
000340 a3 61 1e 3e 8b 56 32 bf 89 96 af 3e 4f 76 da be
       0.15466933 -0.69663304 0.34294537 -0.42668387
000350 69 32 5f be 84 13 df be ef bf 39 be c0 30 5e bf
       -0.21796574 -0.43569577 -0.18139623 -0.86793137
000360 1e f2 79 3e b0 10 80 3f e8 ec 44 3e 11 27 92 bf
       0.24408767 1.0005093 0.19230998 -1.1418172
000370 0b 03 19 bf d7 7e 11 be 4d 6b 80 bf 83 e5 6e 3b
       -0.5977027 -0.14208542 -1.0032746 0.0036452718
000380 7f 4c 00 be ab b5 24 3e af 44 89 3c 00 0f a0 bd
       -0.12529181 0.16084926 0.016756384 -0.07815361
000390 47 56 ab bf 5c 69 8a 3e b6 85 25 3f 97 4f c0 be
       -1.3385705 0.27033508 0.6465715 -0.37560722
0003a0 ea 0e 87 be cc 18 bf be 23 34 62 3f dd 7a 45 3f
       -0.26378566 -0.37323606 0.88360804 0.771406
0003b0 cd d0 00 bf 6c 7e 8f 3d 4d fc 4e bf 20 7d 4c bf
       -0.50318605 0.07006535 -0.8085373 -0.79878426
0003c0 1e 07 05 3f 84 3b af bf 78 91 dd bd d8 85 98 bd
       0.51963985 -1.3690038 -0.108187616 -0.07447404
0003d0 93 93 04 3e a1 13 1d 3f 61 62 57 be 65 cc 16 3f
       0.1294692 0.61358076 -0.21033622 0.5890563
0003e0 1f b0 d7 3e 56 8e b3 3e 01 a9 1c bf ca ee 7c bf
       0.42126557 0.3506953 -0.6119538 -0.98801863
0003f0 fd df 59 3f f9 ad 38 bf 85 03 4c 3f 1f 20 37 bb
       0.85107404 -0.7214046 0.7969287 -0.002794273
