Basic clothing classification/model_int8.tflite (tflite, 104464 bytes, 2 tensors)

std.constant1 i1 [128, 784] scale=0.01102077 zero_point=0
0.15429078 0.23143618 0.28654003 0.04408308 0.33062312 -0.03306231 -0.15429078 -0.36368543
-0.31960234 -0.20939463 -0.24245694 0.06612462 0.02204154 0.0 -0.22041541 -0.02204154
0.11020771 0.02204154 -0.01102077 -0.19837387 -0.18735309 -0.31960234 -0.38572696 0.06612462
0.17633232 0.01102077 -0.01102077 0.15429078 0.42981005 0.42981005 0.24245694 0.19837387
0.055103853 -0.14327002 -0.4849139 -0.58410084 -0.15429078 0.31960234 0.33062312 0.22041541
0.02204154 0.0 0.18735309 0.055103853 0.055103853 0.24245694 0.31960234 -0.01102077
-0.31960234 -0.31960234 -0.6171631 -0.33062312 -0.08816616 0.12122847 0.02204154 0.08816616
0.13224924 0.25347772 0.23143618 0.19837387 -0.055103853 -0.52899694 -0.7934955 -0.60614234
-0.06612462 0.08816616 -0.06612462 -0.04408308 -0.07714539 0.17633232 0.36368543 0.20939463
0.12122847 0.14327002 0.12122847 -0.04408308 -0.33062312 -0.34164387 -0.44083083 -0.26449847
0.02204154 0.25347772 0.19837387 0.07714539 0.26449847 0.19837387 0.13224924 -0.01102077
-0.20939463 -0.49593467 -0.5951216 -0.27551925 -0.08816616 -0.08816616 -0.055103853 0.02204154
0.01102077 0.22041541 0.23143618 0.24245694 0.25347772 0.08816616 0.055103853 -0.01102077
-0.01102077 -0.19837387 -0.26449847 -0.14327002 0.02204154 0.20939463 0.07714539 0.19837387
0.11020771 0.12122847 0.02204154 -0.15429078 -0.13224924 -0.25347772 -0.27551925 -0.22041541
-0.13224924 -0.20939463 0.04408308 0.15429078 0.15429078 0.25347772 0.16531156 0.26449847
0.28654003 0.13224924 -0.055103853 -0.06612462 -0.15429078 -0.15429078 -0.27551925 -0.2975608
-0.04408308 0.15429078 0.08816616 0.13224924 0.06612462 -0.099186935 -0.22041541 -0.28654003
-0.11020771 -0.18735309 -0.27551925 -0.15429078 -0.19837387 -0.02204154 0.07714539 0.18735309
0.01102077 0.26449847 0.27551925 0.20939463 0.18735309 0.15429078 0.07714539 -0.08816616
-0.08816616 -0.12122847 0.01102077 -0.25347772 -0.20939463 0.04408308 -0.055103853 -0.07714539
-0.06612462 -0.12122847 -0.08816616 -0.2975608 -0.18735309 -0.055103853 -0.055103853 -0.01102077
-0.07714539 -0.01102077 0.099186935 0.04408308 0.099186935 -0.03306231 0.02204154 -0.02204154
0.16531156 0.07714539 0.055103853 0.02204154 -0.01102077 0.055103853 0.0 -0.099186935
-0.099186935 0.11020771 0.01102077 0.06612462 0.099186935 -0.04408308 -0.18735309 -0.18735309
-0.01102077 0.0 0.03306231 -0.17633232 -0.07714539 -0.07714539 -0.02204154 0.16531156
0.22041541 0.04408308 0.04408308 0.04408308 0.25347772 0.06612462 0.0 -0.02204154
0.07714539 0.16531156 0.07714539 -0.14327002 0.03306231 0.12122847 0.02204154 0.07714539
-0.055103853 -0.18735309 -0.14327002 -0.31960234 0.055103853 0.08816616 -0.01102077 -0.17633232
-0.27551925 -0.13224924 -0.14327002 0.02204154 -0.03306231 -0.055103853 0.11020771 0.14327002
0.02204154 -0.19837387 -0.06612462 0.01102077 -0.07714539 0.099186935 0.099186935 0.12122847
0.08816616 0.0 -0.07714539 0.01102077 -0.28654003 -0.19837387 -0.31960234 -0.28654003
00000000: 0e15 1a04 1efd f2df e3ed ea06 0200 ecfe
00000010: 0a02 ffee efe3 dd06 1001 ff0e 2727 1612
00000020: 05f3 d4cb f21d 1e14 0200 1105 0516 1dff
00000030: e3e3 c8e2 f80b 0208 0c17 1512 fbd0 b8c9
00000040: fa08 fafc f910 2113 0b0d 0bfc e2e1 d8e8
00000050: 0217 1207 1812 0cff edd3 cae7 f8f8 fb02
00000060: 0114 1516 1708 05ff ffee e8f3 0213 0712
00000070: 0a0b 02f2 f4e9 e7ec f4ed 040e 0e17 0f18
00000080: 1a0c fbfa f2f2 e7e5 fc0e 080c 06f7 ece6
00000090: f6ef e7f2 eefe 0711 0118 1913 110e 07f8
000000a0: f8f5 01e9 ed04 fbf9 faf5 f8e5 effb fbff
000000b0: f9ff 0904 09fd 02fe 0f07 0502 ff05 00f7
000000c0: f70a 0106 09fc efef ff00 03f0 f9f9 fe0f
000000d0: 1404 0404 1706 00fe 070f 07f3 030b 0207
000000e0: fbef f3e3 0508 fff0 e7f4 f302 fdfb 0a0d
000000f0: 02ee fa01 f909 090b 0800 f901 e6ee e3e6

std.constant2 i1 [10, 128] scale=0.024683299 zero_point=0
0.0 -0.0740499 -0.024683299 -0.049366597 -0.0740499 0.049366597 0.049366597 0.17278309
-0.24683298 -0.098733194 0.0740499 -0.0740499 0.098733194 0.0740499 0.0740499 -0.5183493
0.049366597 -0.1480998 -0.049366597 -0.41961607 0.22214969 0.22214969 -0.12341649 -0.41961607
0.098733194 -0.41961607 0.19746639 -0.049366597 -0.2715163 0.024683299 0.0740499 0.0
-0.2961996 -0.19746639 -0.22214969 0.098733194 -0.49366596 0.0 0.024683299 -0.049366597
0.24683298 0.0740499 -0.2961996 -0.1480998 0.12341649 0.12341649 0.24683298 0.098733194
-0.19746639 -0.34556618 0.098733194 0.17278309 -0.19746639 -0.91328204 -0.22214969 0.098733194
0.049366597 -0.2961996 -0.0740499 0.12341649 -0.098733194 0.12341649 0.024683299 -1.3822647
-0.098733194 -0.46898267 -0.2961996 0.1480998 0.17278309 0.098733194 0.2715163 0.12341649
0.049366597 -0.0740499 0.19746639 0.024683299 0.0 -0.17278309 -0.1480998 -0.49366596
-0.12341649 0.19746639 0.024683299 0.44429937 -0.024683299 0.098733194 -0.12341649 0.024683299
-0.17278309 -0.24683298 0.0740499 -0.0740499 -0.19746639 -0.049366597 -0.17278309 -0.37024948
0.1480998 0.049366597 0.12341649 0.1480998 -0.098733194 -0.17278309 -0.024683299 -0.1480998
-0.44429937 0.098733194 -0.024683299 -0.17278309 0.049366597 -0.12341649 -0.2961996 0.024683299
-0.22214969 0.12341649 0.12341649 0.098733194 -0.098733194 -0.39493278 0.1480998 0.024683299
0.049366597 -0.17278309 0.024683299 0.34556618 -0.19746639 0.049366597 -0.46898267 0.19746639
-0.098733194 -0.024683299 0.24683298 -0.098733194 -0.46898267 0.0740499 -0.86391544 -0.6170825
-0.19746639 -0.098733194 -0.22214969 0.1480998 0.0 0.0740499 0.19746639 -0.66644907
-0.1480998 0.0740499 0.12341649 -0.3208829 -0.39493278 -0.2961996 -0.34556618 -0.37024948
-0.3208829 -0.17278309 -0.5430326 0.37024948 -0.19746639 -0.3208829 0.12341649 -0.5430326
-0.71581566 0.12341649 -0.2715163 -0.5183493 -0.46898267 0.098733194 0.12341649 0.0
0.098733194 -0.049366597 0.5677159 -0.1480998 0.0740499 -0.049366597 0.2961996 -0.049366597
-0.17278309 -0.9873319 -0.46898267 -0.2715163 0.71581566 -0.88859874 -0.12341649 -0.34556618
-0.34556618 0.71581566 -0.0740499 0.39493278 -0.39493278 -0.41961607 0.049366597 -0.37024948
0.41961607 -0.0740499 -0.39493278 0.2715163 0.098733194 0.2961996 -0.2715163 -0.024683299
0.22214969 -0.19746639 -0.6170825 -0.44429937 -0.024683299 -0.3208829 -0.0740499 -0.49366596
0.2715163 -0.024683299 -0.19746639 -0.44429937 -0.5923992 -0.024683299 -0.46898267 0.0
-0.024683299 0.76518226 -0.34556618 -0.37024948 0.34556618 -0.17278309 -0.12341649 -0.12341649
-0.17278309 -0.12341649 -0.1480998 0.0 0.12341649 -0.6417658 -0.1480998 0.17278309
0.2961996 -0.44429937 0.049366597 -0.1480998 -0.12341649 0.2961996 0.2715163 -1.0860652
0.19746639 -0.17278309 -0.22214969 -0.17278309 0.3208829 0.049366597 -0.2715163 0.19746639
-0.49366596 -0.17278309 0.41961607 0.37024948 0.098733194 -0.1480998 -0.17278309 -0.17278309
00000000: 00fd fffe fd02 0207 f6fc 03fd 0403 03eb
00000010: 02fa feef 0909 fbef 04ef 08fe f501 0300
00000020: f4f8 f704 ec00 01fe 0a03 f4fa 0505 0a04
00000030: f8f2 0407 f8db f704 02f4 fd05 fc05 01c8
00000040: fced f406 0704 0b05 02fd 0801 00f9 faec
00000050: fb08 0112 ff04 fb01 f9f6 03fd f8fe f9f1
00000060: 0602 0506 fcf9 fffa ee04 fff9 02fb f401
00000070: f705 0504 fcf0 0601 02f9 010e f802 ed08
00000080: fcff 0afc ed03 dde7 f8fc f706 0003 08e5
00000090: fa03 05f3 f0f4 f2f1 f3f9 ea0f f8f3 05ea
000000a0: e305 f5eb ed04 0500 04fe 17fa 03fe 0cfe
000000b0: f9d8 edf5 1ddc fbf2 f21d fd10 f0ef 02f1
000000c0: 11fd f00b 040c f5ff 09f8 e7ee fff3 fdec
000000d0: 0bff f8ee e8ff ed00 ff1f f2f1 0ef9 fbfb
000000e0: f9fb fa00 05e6 fa07 0cee 02fa fb0c 0bd4
000000f0: 08f9 f7f9 0d02 f508 ecf9 110f 04fa f9f9
