mnist-digits/model_size_optimized.tflite (tflite, 16576 bytes, 6 tensors)

sequential_86/hiddenLayer/BiasAdd/ReadVariableOp/resource f4 [16]
0.4125953 -0.038823266 0.36658722 -0.5895827 0.07501442 0.7848749 0.57396084 0.052210532
0.2850222 -0.22731078 0.32920527 -0.31939742 -0.019784397 0.71877986 -0.12975445 0.12171098
00000000: b13f d33e 2505 1fbd 52b1 bb3e e4ee 16bf
00000010: 29a1 993d 90ed 483f 19ef 123f b6da 553d
00000020: 6eee 913e 28c4 68be 988d a83e 0f88 a3be
00000030: e312 a2bc f501 383f 5ade 04be 9b43 f93d

sequential_86/hiddenLayer2/BiasAdd/ReadVariableOp/resource f4 [16]
0.0074225944 0.37520096 0.32525837 0.21961139 0.16291025 0.05636729 0.42358157 0.15168077
-0.14085494 0.2899628 0.02739619 0.05840411 -0.08185408 -0.026145982 0.5210356 -0.07164653
00000000: 3c39 f33b 571a c03e 4488 a63e cfe1 603e
00000010: f2d1 263e 63e1 663d afdf d83e 3452 1b3e
00000020: 473c 10be 0176 943e fa6d e03c 2639 6f3d
00000030: 1da3 a7bd 1930 d6bc 9762 053f 6abb 92bd

sequential_86/outputLayer/BiasAdd/ReadVariableOp/resource f4 [10]
-0.33599183 -0.02337447 0.6049968 -0.24652971 0.040167492 0.46288875 0.13945511 -0.41576272
-0.021193052 -0.20466337
00000000: 1f07 acbe d17b bfbc 12e1 1a3f 4972 7cbe
00000010: ab86 243d c1ff ec3e 52cd 0e3e dade d4be
00000020: 0d9d adbc 4693 51be

sequential_86/hiddenLayer/MatMul i1 [16, 784] scale=0.006125803 zero_point=0
0.061258033 0.04288062 -0.018377408 -0.006125803 -0.018377408 0.030629016 -0.07963544 0.061258033
0.07963544 -0.06738383 -0.024503212 0.024503212 0.006125803 0.049006425 0.036754817 0.0
0.006125803 0.018377408 -0.018377408 -0.08576124 -0.07350963 -0.030629016 -0.012251606 -0.05513223
-0.036754817 -0.006125803 0.049006425 -0.05513223 0.012251606 -0.030629016 -0.018377408 -0.012251606
0.061258033 0.04288062 -0.018377408 0.036754817 -0.049006425 0.049006425 0.018377408 0.0
-0.05513223 0.018377408 -0.024503212 0.012251606 0.061258033 -0.036754817 -0.08576124 -0.06738383
0.061258033 0.030629016 0.0 -0.036754817 0.024503212 -0.07963544 -0.06738383 -0.05513223
0.049006425 -0.07963544 -0.06738383 0.018377408 0.030629016 0.012251606 -0.05513223 -0.049006425
0.0 0.012251606 -0.049006425 -0.012251606 -0.024503212 -0.036754817 0.0 0.122516066
0.13476767 0.04288062 0.10413865 0.061258033 0.10413865 -0.006125803 0.024503212 0.024503212
0.0 0.04288062 0.036754817 -0.030629016 -0.006125803 -0.061258033 -0.07963544 -0.012251606
-0.07963544 -0.030629016 -0.09188705 0.04288062 0.006125803 -0.122516066 -0.15314507 -0.13476767
-0.14089347 -0.036754817 0.006125803 0.09188705 0.018377408 0.15927088 0.061258033 0.018377408
0.012251606 0.05513223 0.07350963 0.0 0.05513223 -0.012251606 0.05513223 0.07350963
-0.018377408 -0.006125803 0.061258033 -0.061258033 0.024503212 -0.018377408 -0.06738383 -0.024503212
-0.2021515 -0.006125803 -0.036754817 0.07350963 0.05513223 -0.024503212 0.15314507 0.12864186
0.030629016 0.08576124 0.15314507 0.05513223 -0.006125803 0.049006425 0.030629016 0.012251606
0.122516066 -0.012251606 -0.05513223 0.030629016 -0.04288062 -0.061258033 -0.05513223 -0.04288062
-0.09188705 0.006125803 -0.08576124 -0.12864186 -0.30629015 -0.09188705 0.036754817 0.18989989
0.13476767 0.0 0.04288062 -0.012251606 -0.018377408 0.15927088 0.0 0.07963544
0.1837741 0.08576124 0.11026446 0.05513223 0.08576124 0.07963544 0.10413865 -0.04288062
-0.061258033 -0.08576124 0.061258033 -0.10413865 -0.08576124 -0.06738383 -0.15314507 -0.14089347
-0.030629016 -0.006125803 0.024503212 0.09801285 0.22052892 0.08576124 0.012251606 0.15314507
-0.018377408 0.17764829 0.061258033 0.15927088 0.061258033 0.08576124 0.14701927 0.16539669
0.28791276 0.24503213 -0.024503212 0.061258033 -0.061258033 0.012251606 0.04288062 -0.04288062
-0.09801285 -0.024503212 -0.1837741 -0.15314507 0.22665471 -0.030629016 0.07963544 -0.12864186
0.05513223 0.061258033 0.23278052 0.17764829 0.22665471 -0.006125803 0.04288062 0.036754817
0.15314507 0.18989989 0.16539669 0.11639026 0.08576124 0.2021515 0.018377408 -0.049006425
0.04288062 0.049006425 -0.04288062 -0.012251606 -0.12864186 -0.09801285 -0.018377408 -0.14701927
0.012251606 0.11026446 -0.030629016 -0.11639026 -0.006125803 0.04288062 0.049006425 -0.036754817
0.07963544 -0.006125803 0.061258033 0.09188705 -0.030629016 0.122516066 0.17152248 0.06738383
0.15314507 0.30629015 0.07350963 0.04288062 0.061258033 -0.006125803 -0.036754817 -0.05513223
00000000: 0a07 fdff fd05 f30a 0df5 fc04 0108 0600
00000010: 0103 fdf2 f4fb fef7 faff 08f7 02fb fdfe
00000020: 0a07 fd06 f808 0300 f703 fc02 0afa f2f5
00000030: 0a05 00fa 04f3 f5f7 08f3 f503 0502 f7f8
00000040: 0002 f8fe fcfa 0014 1607 110a 11ff 0404
00000050: 0007 06fb fff6 f3fe f3fb f107 01ec e7ea
00000060: e9fa 010f 031a 0a03 0209 0c00 09fe 090c
00000070: fdff 0af6 04fd f5fc dfff fa0c 09fc 1915
00000080: 050e 1909 ff08 0502 14fe f705 f9f6 f7f9
00000090: f101 f2eb cef1 061f 1600 07fe fd1a 000d
000000a0: 1e0e 1209 0e0d 11f9 f6f2 0aef f2f5 e7e9
000000b0: fbff 0410 240e 0219 fd1d 0a1a 0a0e 181b
000000c0: 2f28 fc0a f602 07f9 f0fc e2e7 25fb 0deb
000000d0: 090a 261d 25ff 0706 191f 1b13 0e21 03f8
000000e0: 0708 f9fe ebf0 fde8 0212 fbed ff07 08fa
000000f0: 0dff 0a0f fb14 1c0b 1932 0c07 0aff faf7

sequential_86/hiddenLayer2/MatMul f4 [16, 16]
0.7088813 -0.40764427 0.5324525 -0.6942621 -0.29457006 -0.029054413 -0.0032778946 -0.5463748
0.13723375 0.08785569 -0.6922761 -0.2599662 0.81406534 1.069623 -0.7759614 0.43644786
0.3800729 -0.21208484 0.2661168 -0.75837165 0.03322005 0.14896098 0.5548945 0.087578654
0.59991443 -1.0384687 -0.061720394 -0.13216385 -0.0603129 -0.354734 -1.1088675 0.30439118
0.5163205 0.84146315 -0.33075446 0.6082347 0.20459369 0.10862153 -0.7517618 0.1246622
0.86866957 0.18454799 -0.30377164 -0.7106454 1.3526479 0.29294917 -0.05303232 -0.46935862
0.29545817 -0.9061626 0.4393212 -0.24337167 -1.1565728 0.93119717 -0.48362717 -0.29285717
0.15013829 -0.32103318 -0.6004817 0.8985127 -0.8013684 -0.23080386 -0.27098098 0.22324185
0.4195895 0.52293265 -0.72851515 0.22615351 0.24609095 -0.40149006 -0.23024224 0.41511208
0.44217506 -0.21438098 -0.92834383 0.49673212 0.25699663 -0.47417644 -0.15831293 0.36293444
1.1791449 0.12672791 -0.41538748 0.5404745 -0.093762115 0.091170326 -0.05057291 -0.7291282
-0.1258199 -0.4490638 0.12053932 0.2873174 -0.88611734 -0.49113584 0.038687833 0.049401008
-0.45670855 0.48184365 -0.57725036 0.2920408 0.25119844 0.3599661 0.9540992 0.431712
0.15927994 0.7583527 -0.55814916 -0.5057912 0.92792106 0.8035089 -0.07735895 -0.64866877
0.555782 0.5246917 -0.05506789 -0.36836076 -0.49967298 0.41068286 0.7301989 1.2412524
-0.04627853 0.08096703 -0.17144166 -0.042000793 -0.30515426 -0.1366764 0.13268769 -0.77513087
-0.58299536 0.20127621 0.3880647 0.32069603 -0.7166069 0.6901754 -0.038826786 0.25285262
0.80354196 -0.5073239 0.06300998 0.040917035 0.1170373 0.36338314 0.4146102 -0.07529498
0.1581737 -0.17681968 -0.5481583 -0.390405 0.22177227 -0.3606408 0.27946863 -0.13384955
-0.8808802 0.5291828 -0.48279157 0.17519577 -0.004862273 -0.19015238 1.0668106 1.0330303
0.097763754 0.007863793 -1.2745316 0.43760413 1.227978 0.7742127 0.14214583 1.2266471
0.1285252 -0.8657576 0.048627783 0.10412331 0.10049212 -1.198978 0.23988654 0.4591498
0.3308714 -0.96686965 0.24768032 0.003511081 -0.2949258 0.75011826 -0.89110243 -0.41886392
-0.33069396 0.6859582 1.3393937 -0.13205682 -0.2593541 0.09220001 0.6190519 -0.19694372
1.5316246 -0.629752 -0.25642198 0.6359897 -0.20995624 0.346811 -0.3166768 -0.033318575
0.13587257 -0.29126498 -0.16234852 -1.0369723 -0.5429725 -0.52006215 -0.2624205 0.37686983
-0.014484249 -0.56573796 -0.7766303 -0.7226343 -0.36655658 0.6098789 0.7094242 -0.30318642
0.07495399 0.15115273 -0.66608995 -0.024323389 -0.46156797 0.8187294 0.29058364 -0.23359108
0.06268497 -0.5081746 0.2385621 -1.144213 -0.25879693 -0.26574007 0.6534287 -0.6561725
-0.42716858 -0.25437537 0.76426136 -0.15521085 0.2730333 -0.47359827 0.31433827 -0.1515868
-0.033889778 0.35882425 -0.21392684 0.2936495 -0.1813437 -0.43778136 -0.10635057 0.54023033
0.9346108 0.37183917 0.04650555 0.029263088 0.031164458 0.042607576 1.0004399 1.0292692
00000000: 3f79 353f c0b6 d0be cf4e 083f 29bb 31bf
00000010: e3d1 96be 8503 eebc f2d1 56bb 38df 0bbf
00000020: 0187 0c3e afed b33d 0239 31bf 4a1a 85be
00000030: 9666 503f 68e9 883f 68a5 46bf 1876 df3e
00000040: ea98 c23e c52c 59be 7640 883e a524 42bf
00000050: bf11 083d 3a89 183e 910d 0e3f 705c b33d
00000060: fe93 193f 8bec 84bf 86ce 7cbd f655 07be
00000070: a90a 77bd b29f b5be 5fef 8dbf 29d9 9b3e
00000080: 952d 043f 216a 573f a658 a9be 45b5 1b3f
00000090: 0281 513e f774 de3d 7673 40bf e54e ff3d
000000a0: 2161 5e3f 26fa 3c3e f587 9bbe dbec 35bf
000000b0: 9123 ad3f 6ffd 953e 6b38 59bd c64f f0be
000000c0: 4b46 973e 46fa 67bf b5ee e03e 6c36 79be
000000d0: 940a 94bf f062 6e3f fb9d f7be 60f1 95be
000000e0: dabd 193e 765e a4be 2bb9 19bf ee04 663f
000000f0: 7b26 4dbf d957 6cbe 05be 8abe 8399 643e
00000100: 6fd4 d63e eade 053f f87f 3abf c994 673e
00000110: 44ff 7b3e 1b90 cdbe 9fc4 6bbe 9289 d43e
00000120: c564 e23e b086 5bbe f1a7 6dbf ac53 fe3e
00000130: 1095 833e 41c7 f2be c91c 22be 8bd2 b93e
00000140: 38ee 963f f6c4 013e abad d4be 895c 0a3f
00000150: 5a06 c0bd 82b7 ba3d 8a25 4fbd 25a8 3abf
00000160: efd6 00be b1eb e5be 52dd f63d 441b 933e
00000170: 96d8 62bf 2876 fbbe 2277 1e3d b658 4a3d
00000180: b4d5 e9be 36b4 f63e aec6 13bf 5f86 953e
00000190: 159d 803e 7a4d b83e d83f 743f 5b09 dd3e
000001a0: 481a 233e 6723 423f dde2 0ebf 887b 01bf
000001b0: 3c8c 6d3f c2b2 4d3f 5f6e 9ebd 280f 26bf
000001c0: bb47 0e3f 3252 063f de8e 61bd c899 bcbe
000001d0: 23d5 ffbe 0645 d23e 51ee 3a3f 5ce1 9e3f
000001e0: 8e8e 3dbd 0bd2 a53d 678e 2fbe 0609 2cbd
000001f0: 2e3d 9cbe e6f4 0bbe 48df 073e fa6e 46bf
00000200: 2f3f 15bf 5a1b 4e3e 6bb0 c63e 4532 a43e
00000210: 8d73 37bf 56af 303f d608 1fbd e675 813e
00000220: edb4 4d3f fbdf 01bf 600b 813d 9f98 273d
00000230: 40b1 ef3d 5b0d ba3e ca47 d43e 4134 9abd
00000240: 49f8 213e 3810 35be 1a54 0cbf 2ae3 c7be
00000250: 4518 633e e9a5 b8be 8316 8f3e db0f 09be
00000260: 5d81 61bf 8678 073f 7530 f7be 8566 333e
00000270: b453 9fbb 4eb7 42be 408d 883f 563a 843f
00000280: 5d38 c83d 23d7 003c da23 a3bf a60d e03e
00000290: 622e 9d3f ce32 463f ad8e 113e c602 9d3f
000002a0: 1c9c 033e 4aa2 5dbf ed2d 473d 9a3e d53d
000002b0: d0ce cd3d 1c78 99bf d1a4 753e af15 eb3e
000002c0: fa67 a93e c584 77bf e99f 7d3e 2a1a 663b
000002d0: 8400 97be c007 403f 4a1f 64bf 5575 d6be
000002e0: b850 a9be f59a 2f3f 4171 ab3f e739 07be
000002f0: 10ca 84be 5cd3 bc3d 2f7a 1e3f 9dab 49be
00000300: 460c c43f 6d37 21bf be49 83be 39d0 223f
00000310: c5fe 56be 3691 b13e 7623 a2be 0f79 08bd
00000320: 2e22 0b3e af20 95be b13e 26be 82bb 84bf
00000330: 3f00 0bbf cb22 05bf fb5b 86be 15f5 c03e
00000340: 584f 6dbc 34d4 10bf 3ed1 46bf 90fe 38bf
00000350: 4ead bbbe 0621 1c3f d39c 353f 403b 9bbe
00000360: 7a81 993d c8c7 1a3e df84 2abf d841 c7bc
00000370: a352 ecbe 4098 513f 61c7 943e 8032 6fbe
00000380: fa60 803d bb17 02bf a049 743e 9275 92bf
00000390: 0881 84be 150f 88be 1a47 273f ecfa 27bf
000003a0: d7b5 dabe 7d3d 82be a2a6 433f 98ef 1ebe
000003b0: 05cb 8b3e 797b f2be f2f0 a03e 9239 1bbe
000003c0: 02d0 0abd d0b7 b73e a30f 5bbe 3a59 963e
000003d0: 2ab2 39be e124 e0be 54ce d9bd 894c 0a3f
000003e0: a742 6f3f b461 be3e 9b7c 3e3d 25b9 ef3c
000003f0: 9b4c ff3c 4885 2e3d 6a0e 803f 18bf 833f

sequential_86/outputLayer/MatMul f4 [10, 16]
1.0281634 0.23897433 -0.3300533 0.4369597 0.27585635 -0.87269837 -0.32805547 -0.8103293
0.51728576 0.08365109 -0.13897958 0.27094853 -0.2543587 -0.052401923 0.08928148 -0.7610602
-0.13089406 -0.39423957 0.56692463 -0.21504743 0.7159179 -0.20456658 0.2930557 -0.6689967
-0.84764445 0.54225594 0.8179374 0.4561224 0.5054516 0.062215947 -0.53668135 0.090001404
0.26842985 -0.72014153 -0.8799783 0.25683498 0.07045534 0.052930485 0.94562125 0.02020713
-0.56721854 0.9203934 -0.1941742 0.91909295 -0.19504984 -0.6862096 0.46844357 -0.20197101
-0.6092982 -0.6999334 0.19991902 0.15918918 -0.53554076 0.62583137 -0.069519475 0.34970957
0.43758366 0.16426124 -0.21134815 0.3897526 0.39205876 0.60909426 -0.49679884 0.166444
-0.5257375 0.48097098 0.0864589 -0.99504304 0.59742045 -0.027188312 0.0990367 1.0246108
0.21640632 -0.5436529 0.7944543 -0.44025052 -1.2532257 -0.7077219 0.7290955 -0.6651229
0.15135552 0.09053848 0.8415958 -0.5291387 -0.18712969 0.20698932 0.2290013 0.15360938
0.17947936 -0.40806282 -1.5771037 -0.50549984 0.8801028 0.707625 -0.27503812 0.2413304
0.54375243 0.75741166 0.5118603 -0.35511395 -0.5127155 -0.074581765 -1.1698614 -0.49876827
-0.49380863 0.25963703 -0.3878287 -0.5242779 -0.07028321 0.20074475 0.6472732 0.42640248
-0.5558224 -0.8503589 -0.82071686 -0.15912122 0.50091326 -0.8206052 1.0996264 0.6464316
0.5679285 0.3127494 0.5463684 0.5251481 -0.5988163 0.7385313 -0.7780686 -0.28836063
0.4825521 -0.46070048 -0.2875459 0.6106567 0.58795524 0.9174817 -0.112953395 0.71763325
-0.090740204 -0.4235183 -0.78103787 -0.43341997 -0.532807 -0.46249288 -0.49692202 0.47595894
-0.09287996 0.25342014 0.32304552 0.63235307 0.675804 -0.15994124 0.13710213 0.48577136
0.66836286 -0.531469 0.53586805 -0.7960294 -0.039049968 0.22056249 0.21666779 -1.2896322
00000000: dc9a 833f b0b5 743e bffc a8be 2fb9 df3e
00000010: 0b3d 8d3e 2969 5fbf e3f6 a7be be71 4fbf
00000020: d76c 043f 4351 ab3d aa50 0ebe c4b9 8a3e
00000030: 4e3b 82be 66a3 56bd 35d9 b63d d7d4 42bf
00000040: 1809 06be c5d9 c9be f921 113f 6535 5cbe
00000050: 6546 373f e779 51be 660b 963e 5e43 2bbf
00000060: 3aff 58bf 49d1 0a3f 5864 513f e088 e93e
00000070: 4765 013f 26d6 7e3d f363 09bf a852 b83d
00000080: a36f 893e 325b 38bf 4246 61bf e07f 833e
00000090: e44a 903d a3cd 583d 3c14 723f 6c89 a53c
000000a0: 3c35 11bf e79e 6b3f 9ad5 46be ad49 6b3f
000000b0: 25bb 47be 6fab 2fbf d6d7 ef3e 7dd1 4ebe
000000c0: f8fa 1bbf d62e 33bf 92b7 4c3e 7d02 233e
000000d0: 3319 09bf 7c36 203f 3a60 8ebd 220d b33e
000000e0: f70a e03e 1934 283e a66b 58be a78d c73e
000000f0: edbb c83e 9aed 1b3f 6b5c febe 4c70 2a3e
00000100: bc96 06bf d441 f63e 5d11 b13d 24bb 7ebf
00000110: 8cf0 183f 06ba debc c1d3 ca3d 7226 833f
00000120: 9e99 5d3e d62c 0bbf 5b61 4b3f 8468 e1be
00000130: b369 a0bf 432d 35bf 01a6 3a3f 7f45 2abf
00000140: f1fc 1a3e 3d6c b93d d372 573f a275 07bf
00000150: ed9e 3fbe 02f5 533e 517f 6a3e c74b 1d3e
00000160: 70c9 373e 9ced d0be 89de c9bf 7068 01bf
00000170: 6b4e 613f e926 353f ccd1 8cbe 511f 773e
00000180: 5c33 0b3f bbe5 413f 4709 033f 7fd1 b5be
00000190: 5341 03bf 53be 98bd 05be 95bf 8e5e ffbe
000001a0: 7cd4 fcbe 25ef 843e 7c91 c6be 1437 06bf
000001b0: a5f0 8fbd 0890 4d3e b2b3 253f 6d51 da3e
000001c0: 604a 0ebf 1fb1 59bf 801a 52bf acf0 22be
000001d0: da3b 003f 2f13 52bf 8fc0 8c3f 8b7c 253f
000001e0: c363 113f b020 a03e cdde 0b3f 1b70 063f
000001f0: 064c 19bf 6310 3d3f 812f 47bf 01a4 93be
00000200: 1211 f73e efe0 ebbe 3739 93be ff53 1c3f
00000210: 3c84 163f 15e0 6a3f 1c54 e7bd d0b6 373f
00000220: 00d6 b9bd 64d7 d8be 19f2 47bf 39e9 ddbe
00000230: 0a66 08bf decb ecbe 906c febe e4b0 f33e
00000240: d937 bebd 49c0 813e 3966 a53e e4e1 213f
00000250: 7e01 2d3f a3c7 23be 8064 0c3e 06b7 f83e
00000260: d419 2b3f 5a0e 08bf a62e 093f 95c8 4bbf
00000270: dcf2 1fbd 22db 613e 29de 5d3e ab12 a5bf
